…
(c_in, layers, ks=2, dropout=0.0)\n\n\nsource\n\n\nTemporalBlock\n\n TemporalBlock (ni, nf, ks, stride, dilation, padding, dropout=0.0)\n\nSame as nn.Module, but no need for subclasses to call super().__init__\n\nbs = 16\nnvars = 3\nseq_len = 128\nc_out = 2\nxb = torch.rand(bs, nvars, seq_len)\nmodel = TCN(nvars, c_out, fc_dropout=.5)\ntest_eq(model(xb).shape, (bs, c_out))\nmodel = TCN(nvars, c_out, conv_dropout=.2)\ntest_eq(model(xb).shape, (bs, c_out))\nmodel = TCN(nvars, c_out)\ntest_eq(model(xb).shape, (bs, c_out))\nmodel\n\nTCN(\n  (tcn): Sequential(\n    (0): TemporalBlock(\n      (conv1): Conv1d(3, 25, kernel_size=(7,), stride=(1,), padding=(6,))\n      (chomp1): Chomp1d()\n      (relu1): ReLU()\n      (dropout1): Dropout(p=0.0, inplace=False)\n      (conv2): Conv1d(25, 25, kernel_size=(7,), stride=(1,), padding=(6,))\n      (chomp2): Chomp1d()\n      (relu2): ReLU()\n      (dropout2): Dropout(p=0.0, inplace=False)\n      (net): Sequential(\n        (0): Conv1d(3, 25, kernel_size=(7,), stride=(1,), padding=(6,))\n        (1): Chomp1d()\n        (2): ReLU()\n        (3): Dropout(p=0.0, inplace=False)\n        (4): Conv1d(25, 25, kernel_size=(7,), stride=(1,), padding=(6,))\n        (5): Chomp1d()\n        (6): ReLU()\n        (7): Dropout(p=0.0, inplace=False)\n      )\n      (downsample): Conv1d(3, 25, kernel_size=(1,), stride=(1,))\n      (relu): ReLU()\n    )\n    (1): TemporalBlock(\n      (conv1): Conv1d(25, 25, kernel_size=(7,), stride=(1,), padding=(12,), dilation=(2,))\n      (chomp1): Chomp1d()\n      (relu1): ReLU()\n      (dropout1): Dropout(p=0.0, inplace=False)\n      (conv2): Conv1d(25, 25, kernel_size=(7,), stride=(1,), padding=(12,), dilation=(2,))\n      (chomp2): Chomp1d()\n      (relu2): ReLU()\n      (dropout2): Dropout(p=0.0, inplace=False)\n      (net): Sequential(\n        (0): Conv1d(25, 25, kernel_size=(7,), stride=(1,), padding=(12,), dilation=(2,))\n        (1): Chomp1d()\n        (2): ReLU()\n        (3): Dropout(p=0.0, inplace=False)\n        (4): Conv1d(25, 25, kernel_size=(7,), stride=(1,), padding=(12,), dilation=(2,))\n        (5): Chomp1d()\n        (6): ReLU()\n        (7): Dropout(p=0.0, inplace=False)\n      )\n      (relu): ReLU()\n    )\n    (2): TemporalBlock(\n      (conv1): Conv1d(25, 25, kernel_size=(7,), stride=(1,), padding=(24,), dilation=(4,))\n      (chomp1): Chomp1d()\n      (relu1): ReLU()\n      (dropout1): Dropout(p=0.0, inplace=False)\n      (conv2): Conv1d(25, 25, kernel_size=(7,), stride=(1,), padding=(24,), dilation=(4,))\n      (chomp2): Chomp1d()\n      (relu2): ReLU()\n      (dropout2): Dropout(p=0.0, inplace=False)\n      (net): Sequential(\n        (0): Conv1d(25, 25, kernel_size=(7,), stride=(1,), padding=(24,), dilation=(4,))\n        (1): Chomp1d()\n        (2): ReLU()\n        (3): Dropout(p=0.0, inplace=False)\n        (4): Conv1d(25, 25, kernel_size=(7,), stride=(1,), padding=(24,), dilation=(4,))\n        (5): Chomp1d()\n        (6): ReLU()\n        (7): Dropout(p=0.0, inplace=False)\n      )\n      (relu): ReLU()\n    )\n    (3): TemporalBlock(\n      (conv1): Conv1d(25, 25, kernel_size=(7,), stride=(1,), padding=(48,), dilation=(8,))\n      (chomp1): Chomp1d()\n      (relu1): ReLU()\n      (dropout1): Dropout(p=0.0, inplace=False)\n      (conv2): Conv1d(25, 25, kernel_size=(7,), stride=(1,), padding=(48,), dilation=(8,))\n      (chomp2): Chomp1d()\n      (relu2): ReLU()\n      (dropout2): Dropout(p=0.0, inplace=False)\n      (net): Sequential(\n        (0): Conv1d(25, 25, kernel_size=(7,), stride=(1,), padding=(48,), dilation=(8,))\n        (1): Chomp1d()\n        (2): ReLU()\n        (3): Dropout(p=0.0, inplace=False)\n        (4): Conv1d(25, 25, kernel_size=(7,), stride=(1,), padding=(48,), dilation=(8,))\n        (5): Chomp1d()\n        (6): ReLU()\n        (7): Dropout(p=0.0, inplace=False)\n      )\n      (relu): ReLU()\n    )\n    (4): TemporalBlock(\n      (conv1): Conv1d(25, 25, kernel_size=(7,), stride=(1,), padding=(96,), dilation=(16,))\n      (chomp1): Chomp1d()\n      (relu1): ReLU()\n      (dropout1): Dropout(p=0.0, inplace=False)\n      (conv2): Conv1d(25, 25, kernel_size=(7,), stride=(1,), padding=(96,), dilation=(16,))\n      (chomp2): Chomp1d()\n      (relu2): ReLU()\n      (dropout2): Dropout(p=0.0, inplace=False)\n      (net): Sequential(\n        (0): Conv1d(25, 25, kernel_size=(7,), stride=(1,), padding=(96,), dilation=(16,))\n        (1): Chomp1d()\n        (2): ReLU()\n        (3): Dropout(p=0.0, inplace=False)\n        (4): Conv1d(25, 25, kernel_size=(7,), stride=(1,), padding=(96,), dilation=(16,))\n        (5): Chomp1d()\n        (6): ReLU()\n        (7): Dropout(p=0.0, inplace=False)\n      )\n      (relu): ReLU()\n    )\n    (5): TemporalBlock(\n      (conv1): Conv1d(25, 25, kernel_size=(7,), stride=(1,), padding=(192,), dilation=(32,))\n      (chomp1): Chomp1d()\n      (relu1): ReLU()\n      (dropout1): Dropout(p=0.0, inplace=False)\n      (conv2): Conv1d(25, 25, kernel_size=(7,), stride=(1,), padding=(192,), dilation=(32,))\n      (chomp2): Chomp1d()\n      (relu2): ReLU()\n      (dropout2): Dropout(p=0.0, inplace=False)\n      (net): Sequential(\n        (0): Conv1d(25, 25, kernel_size=(7,), stride=(1,), padding=(192,), dilation=(32,))\n        (1): Chomp1d()\n        (2): ReLU()\n        (3): Dropout(p=0.0, inplace=False)\n        (4): Conv1d(25, 25, kernel_size=(7,), stride=(1,), padding=(192,), dilation=(32,))\n        (5): Chomp1d()\n        (6): ReLU()\n        (7): Dropout(p=0.0, inplace=False)\n      )\n      (relu): ReLU()\n    )\n    (6): TemporalBlock(\n      (conv1): Conv1d(25, 25, kernel_size=(7,), stride=(1,), padding=(384,), dilation=(64,))\n      (chomp1): Chomp1d()\n      (relu1): ReLU()\n      (dropout1): Dropout(p=0.0, inplace=False)\n      (conv2): Conv1d(25, 25, kernel_size=(7,), stride=(1,), padding=(384,), dilation=(64,))\n      (chomp2): Chomp1d()\n      (relu2): ReLU()\n      (dropout2): Dropout(p=0.0, inplace=False)\n      (net): Sequential(\n        (0): Conv1d(25, 25, kernel_size=(7,), stride=(1,), padding=(384,), dilation=(64,))\n        (1): Chomp1d()\n        (2): ReLU()\n        (3): Dropout(p=0.0, inplace=False)\n        (4): Conv1d(25, 25, kernel_size=(7,), stride=(1,), padding=(384,), dilation=(64,))\n        (5): Chomp1d()\n        (6): ReLU()\n        (7): Dropout(p=0.0, inplace=False)\n      )\n      (relu): ReLU()\n    )\n    (7): TemporalBlock(\n      (conv1): Conv1d(25, 25, kernel_size=(7,), stride=(1,), padding=(768,), dilation=(128,))\n      (chomp1): Chomp1d()\n      (relu1): ReLU()\n      (dropout1): Dropout(p=0.0, inplace=False)\n      (conv2): Conv1d(25, 25, kernel_size=(7,), stride=(1,), padding=(768,), dilation=(128,))\n      (chomp2): Chomp1d()\n      (relu2): ReLU()\n      (dropout2): Dropout(p=0.0, inplace=False)\n      (net): Sequential(\n        (0): Conv1d(25, 25, kernel_size=(7,), stride=(1,), padding=(768,), dilation=(128,))\n        (1): Chomp1d()\n        (2): ReLU()\n        (3): Dropout(p=0.0, inplace=False)\n        (4): Conv1d(25, 25, kernel_size=(7,), stride=(1,), padding=(768,), dilation=(128,))\n        (5): Chomp1d()\n        (6): ReLU()\n        (7): Dropout(p=0.0, inplace=False)\n      )\n      (relu): ReLU()\n    )\n  )\n  (gap): GAP1d(\n    (gap): AdaptiveAvgPool1d(output_size=1)\n    (flatten): Flatten(full=False)\n  )\n  (linear): Linear(in_features=25, out_features=2, bias=True)\n)",
    "crumbs": [
      "Models",
      "CNNs",
      "TCN"
    ]
  },
  {
    "objectID": "models.multirocketplus.html",
    "href": "models.multirocketplus.html",
    "title": "MultiRocketPlus",
    "section": "",
    "text": "MultiRocket: Multiple pooling operators and transformations for fast and effective time series classification.\n\nThis is a P
…
[bs, c_out])\n\n\nbs = 16\nn_vars = 3\nseq_len = 12\nd = 10\nc_out = 2\nxb = torch.rand(bs, n_vars, seq_len)\ntest_eq(RNN_FCNPlus(n_vars, c_out, seq_len, d=d)(xb).shape, [bs, d, c_out])\n\n\nbs = 16\nn_vars = 3\nseq_len = 12\nd = (5, 3)\nc_out = 2\nxb = torch.rand(bs, n_vars, seq_len)\ntest_eq(RNN_FCNPlus(n_vars, c_out, seq_len, d=d)(xb).shape, [bs, *d, c_out])\n\n\nLSTM_FCNPlus(n_vars, seq_len, c_out, se=8)\n\nLSTM_FCNPlus(\n  (backbone): _RNN_FCN_Base_Backbone(\n    (rnn): LSTM(2, 100, batch_first=True)\n    (rnn_dropout): Dropout(p=0.8, inplace=False)\n    (convblock1): ConvBlock(\n      (0): Conv1d(3, 128, kernel_size=(7,), stride=(1,), padding=(3,), bias=False)\n      (1): BatchNorm1d(128, eps=1e-05, momentum=0.1, affine=True, track_running_stats=True)\n      (2): ReLU()\n    )\n    (se1): SqueezeExciteBlock(\n      (avg_pool): GAP1d(\n        (gap): AdaptiveAvgPool1d(output_size=1)\n        (flatten): Reshape(bs)\n      )\n      (fc): Sequential(\n        (0): Linear(in_features=128, out_features=16, bias=False)\n        (1): ReLU()\n        (2): Linear(in_features=16, out_features=128, bias=False)\n        (3): Sigmoid()\n      )\n    )\n    (convblock2): ConvBlock(\n      (0): Conv1d(128, 256, kernel_size=(5,), stride=(1,), padding=(2,), bias=False)\n      (1): BatchNorm1d(256, eps=1e-05, momentum=0.1, affine=True, track_running_stats=True)\n      (2): ReLU()\n    )\n    (se2): SqueezeExciteBlock(\n      (avg_pool): GAP1d(\n        (gap): AdaptiveAvgPool1d(output_size=1)\n        (flatten): Reshape(bs)\n      )\n      (fc): Sequential(\n        (0): Linear(in_features=256, out_features=32, bias=False)\n        (1): ReLU()\n        (2): Linear(in_features=32, out_features=256, bias=False)\n        (3): Sigmoid()\n      )\n    )\n    (convblock3): ConvBlock(\n      (0): Conv1d(256, 128, kernel_size=(3,), stride=(1,), padding=(1,), bias=False)\n      (1): BatchNorm1d(128, eps=1e-05, momentum=0.1, affine=True, track_running_stats=True)\n      (2): ReLU()\n    )\n    (gap): GAP1d(\n      (gap): AdaptiveAvgPool1d(output_size=1)\n      (flatten): Reshape(bs)\n    )\n    (concat): Concat(dim=1)\n  )\n  (head): Sequential(\n    (0): Linear(in_features=228, out_features=12, bias=True)\n  )\n)",
    "crumbs": [
      "Models",
      "Hybrid models",
      "RNN_FCNPlus"
    ]
  },
  {
    "objectID": "models.rnn.html",
    "href": "models.rnn.html",
    "title": "RNNs",
    "section": "",
    "text": "These are RNN, LSTM and GRU PyTorch implementations created by Ignacio Oguiza - oguiza@timeseriesAI.co\nsource",
    "crumbs": [
      "Models",
…
\ntest_eq(XceptionTime(vars,c_out)(xb).shape, [bs, c_out])\ntest_eq(XceptionTime(vars,c_out, bottleneck=False)(xb).shape, [bs, c_out])\ntest_eq(XceptionTime(vars,c_out, residual=False)(xb).shape, [bs, c_out])\ntest_eq(count_parameters(XceptionTime(3, 2)), 399540)\n\n\nm = XceptionTime(2,3)\ntest_eq(check_weight(m, is_bn)[0].sum(), 5) # 2 shortcut + 3 bn\ntest_eq(len(check_bias(m, is_conv)[0]), 0)\ntest_eq(len(check_bias(m)[0]), 5) # 2 shortcut + 3 bn\n\n\nXceptionTime(3, 2)\n\nXceptionTime(\n  (block): XceptionBlock(\n    (xception): ModuleList(\n      (0): XceptionModule(\n        (bottleneck): Conv1d(3, 16, kernel_size=(1,), stride=(1,), bias=False)\n        (convs): ModuleList(\n          (0): SeparableConv1d(\n            (depthwise_conv): Conv1d(16, 16, kernel_size=(39,), stride=(1,), padding=(19,), groups=16, bias=False)\n            (pointwise_conv): Conv1d(16, 16, kernel_size=(1,), stride=(1,), bias=False)\n          )\n          (1): SeparableConv1d(\n            (depthwise_conv): Conv1d(16, 16, kernel_size=(19,), stride=(1,), padding=(9,), groups=16, bias=False)\n            (pointwise_conv): Conv1d(16, 16, kernel_size=(1,), stride=(1,), bias=False)\n          )\n          (2): SeparableConv1d(\n            (depthwise_conv): Conv1d(16, 16, kernel_size=(9,), stride=(1,), padding=(4,), groups=16, bias=False)\n            (pointwise_conv): Conv1d(16, 16, kernel_size=(1,), stride=(1,), bias=False)\n          )\n        )\n        (maxconvpool): Sequential(\n          (0): MaxPool1d(kernel_size=3, stride=1, padding=1, dilation=1, ceil_mode=False)\n          (1): Conv1d(3, 16, kernel_size=(1,), stride=(1,), bias=False)\n        )\n        (concat): Concat(dim=1)\n      )\n      (1): XceptionModule(\n        (bottleneck): Conv1d(64, 32, kernel_size=(1,), stride=(1,), bias=False)\n        (convs): ModuleList(\n          (0): SeparableConv1d(\n            (depthwise_conv): Conv1d(32, 32, kernel_size=(39,), stride=(1,), padding=(19,), groups=32, bias=False)\n            (pointwise_conv): Conv1d(32, 32, kernel_size=(1,), stride=(1,), bias=False)\n          )\n          (1): SeparableConv1d(\n            (depthwise_conv): Conv1d(32, 32, kernel_size=(19,), stride=(1,), padding=(9,), groups=32, bias=False)\n            (pointwise_conv): Conv1d(32, 32, kernel_size=(1,), stride=(1,), bias=False)\n          )\n          (2): SeparableConv1d(\n            (depthwise_conv): Conv1d(32, 32, kernel_size=(9,), stride=(1,), padding=(4,), groups=32, bias=False)\n            (pointwise_conv): Conv1d(32, 32, kernel_size=(1,), stride=(1,), bias=False)\n          )\n        )\n        (maxconvpool): Sequential(\n          (0): MaxPool1d(kernel_size=3, stride=1, padding=1, dilation=1, ceil_mode=False)\n          (1): Conv1d(64, 32, kernel_size=(1,), stride=(1,), bias=False)\n        )\n        (concat): Concat(dim=1)\n      )\n      (2): XceptionModule(\n        (bottleneck): Conv1d(128, 64, kernel_size=(1,), stride=(1,), bias=False)\n        (convs): ModuleList(\n          (0): SeparableConv1d(\n            (depthwise_conv): Conv1d(64, 64, kernel_size=(39,), stride=(1,), padding=(19,), groups=64, bias=False)\n            (pointwise_conv): Conv1d(64, 64, kernel_size=(1,), stride=(1,), bias=False)\n          )\n          (1): SeparableConv1d(\n            (depthwise_conv): Conv1d(64, 64, kernel_size=(19,), stride=(1,), padding=(9,), groups=64, bias=False)\n            (pointwise_conv): Conv1d(64, 64, kernel_size=(1,), stride=(1,), bias=False)\n          )\n          (2): SeparableConv1d(\n            (depthwise_conv): Conv1d(64, 64, kernel_size=(9,), stride=(1,), padding=(4,), groups=64, bias=False)\n            (pointwise_conv): Conv1d(64, 64, kernel_size=(1,), stride=(1,), bias=False)\n          )\n        )\n        (maxconvpool): Sequential(\n          (0): MaxPool1d(kernel_size=3, stride=1, padding=1, dilation=1, ceil_mode=False)\n          (1): Conv1d(128, 64, kernel_size=(1,), stride=(1,), bias=False)\n        )\n        (concat): Concat(dim=1)\n      )\n      (3): XceptionModule(\n        (bottleneck): Conv1d(256, 128, kernel_size=(1,), stride=(1,), bias=False)\n        (convs): ModuleList(\n          (0): SeparableConv1d(\n            (depthwise_conv): Conv1d(128, 128, kernel_size=(39,), stride=(1,), padding=(19,), groups=128, bias=False)\n            (pointwise_conv): Conv1d(128, 128, kernel_size=(1,), stride=(1,), bias=False)\n          )\n          (1): SeparableConv1d(\n            (depthwise_conv): Conv1d(128, 128, kernel_size=(19,), stride=(1,), padding=(9,), groups=128, bias=False)\n            (pointwise_conv): Conv1d(128, 128, kernel_size=(1,), stride=(1,), bias=False)\n          )\n          (2): SeparableConv1d(\n            (depthwise_conv): Conv1d(128, 128, kernel_size=(9,), stride=(1,), padding=(4,), groups=128, bias=False)\n            (pointwise_conv): Conv1d(128, 128, kernel_size=(1,), stride=(1,), bias=False)\n          )\n        )\n        (maxconvpool): Sequential(\n          (0): MaxPool1d(kernel_size=3, stride=1, padding=1, dilation=1, ceil_mode=False)\n          (1): Conv1d(256, 128, kernel_size=(1,), stride=(1,), bias=False)\n        )\n        (concat): Concat(dim=1)\n      )\n    )\n    (shortcut): ModuleList(\n      (0): ConvBlock(\n        (0): Conv1d(3, 128, kernel_size=(1,), stride=(1,), bias=False)\n        (1): BatchNorm1d(128, eps=1e-05, momentum=0.1, affine=True, track_running_stats=True)\n      )\n      (1): ConvBlock(\n        (0): Conv1d(128, 512, kernel_size=(1,), stride=(1,), bias=False)\n        (1): BatchNorm1d(512, eps=1e-05, momentum=0.1, affine=True, track_running_stats=True)\n      )\n    )\n    (add): Add\n    (act): ReLU()\n  )\n  (head): Sequential(\n    (0): AdaptiveAvgPool1d(output_size=50)\n    (1): ConvBlock(\n      (0): Conv1d(512, 256, kernel_size=(1,), stride=(1,), bias=False)\n      (1): BatchNorm1d(256, eps=1e-05, momentum=0.1, affine=True, track_running_stats=True)\n      (2): ReLU()\n    )\n    (2): ConvBlock(\n      (0): Conv1d(256, 128, kernel_size=(1,), stride=(1,), bias=False)\n      (1): BatchNorm1d(128, eps=1e-05, momentum=0.1, affine=True, track_running_stats=True)\n      (2): ReLU()\n    )\n    (3): ConvBlock(\n      (0): Conv1d(128, 2, kernel_size=(1,), stride=(1,), bias=False)\n      (1): BatchNorm1d(2, eps=1e-05, momentum=0.1, affine=True, track_running_stats=True)\n      (2): ReLU()\n    )\n    (4): GAP1d(\n      (gap): AdaptiveAvgPool1d(output_size=1)\n      (flatten): Flatten(full=False)\n    )\n  )\n)",
    "crumbs": [
      "Models",
      "CNNs",
      "XceptionTime"
    ]
  },
  {
    "objectID": "models.rnnplus.html",
    "href": "models.rnnplus.html",
    "title": "RNNPlus",
    "section": "",
…
    "text": "This is an unofficial PyTorch implementation created by Ignacio Oguiza - oguiza@timeseriesAI.co\n\n\nsource\n\nTransformerModel\n\n TransformerModel (c_in, c_out, d_model=64, n_head=1, d_ffn=128,\n                   dropout=0.1, activation='relu', n_layers=1)\n\nSame as nn.Module, but no need for subclasses to call super().__init__\n\nbs = 16\nnvars = 3\nseq_len = 96\nc_out = 2\nxb = torch.rand(bs, nvars, seq_len)\n\n\nmodel = TransformerModel(nvars, c_out, d_model=64, n_head=1, d_ffn=128, dropout=0.1, activation='gelu', n_layers=3)\ntest_eq(model(xb).shape, [bs, c_out])\nprint(count_parameters(model))\nmodel\n\n100930\n\n\nTransformerModel(\n  (permute): Permute(dims=2, 0, 1)\n  (inlinear): Linear(in_features=3, out_features=64, bias=True)\n  (relu): ReLU()\n  (transformer_encoder): TransformerEncoder(\n    (layers): ModuleList(\n      (0): TransformerEncoderLayer(\n        (self_attn): MultiheadAttention(\n          (out_proj): NonDynamicallyQuantizableLinear(in_features=64, out_features=64, bias=True)\n        )\n        (linear1): Linear(in_features=64, out_features=128, bias=True)\n        (dropout): Dropout(p=0.1, inplace=False)\n        (linear2): Linear(in_features=128, out_features=64, bias=True)\n        (norm1): LayerNorm((64,), eps=1e-05, elementwise_affine=True)\n        (norm2): LayerNorm((64,), eps=1e-05, elementwise_affine=True)\n        (dropout1): Dropout(p=0.1, inplace=False)\n        (dropout2): Dropout(p=0.1, inplace=False)\n      )\n      (1): TransformerEncoderLayer(\n        (self_attn): MultiheadAttention(\n          (out_proj): NonDynamicallyQuantizableLinear(in_features=64, out_features=64, bias=True)\n        )\n        (linear1): Linear(in_features=64, out_features=128, bias=True)\n        (dropout): Dropout(p=0.1, inplace=False)\n        (linear2): Linear(in_features=128, out_features=64, bias=True)\n        (norm1): LayerNorm((64,), eps=1e-05, elementwise_affine=True)\n        (norm2): LayerNorm((64,), eps=1e-05, elementwise_affine=True)\n        (dropout1): Dropout(p=0.1, inplace=False)\n        (dropout2): Dropout(p=0.1, inplace=False)\n      )\n      (2): TransformerEncoderLayer(\n        (self_attn): MultiheadAttention(\n          (out_proj): NonDynamicallyQuantizableLinear(in_features=64, out_features=64, bias=True)\n        )\n        (linear1): Linear(in_features=64, out_features=128, bias=True)\n        (dropout): Dropout(p=0.1, inplace=False)\n        (linear2): Linear(in_features=128, out_features=64, bias=True)\n        (norm1): LayerNorm((64,), eps=1e-05, elementwise_affine=True)\n        (norm2): LayerNorm((64,), eps=1e-05, elementwise_affine=True)\n        (dropout1): Dropout(p=0.1, inplace=False)\n        (dropout2): Dropout(p=0.1, inplace=False)\n      )\n    )\n    (norm): LayerNorm((64,), eps=1e-05, elementwise_affine=True)\n  )\n  (transpose): Transpose(1, 0)\n  (max): Max(dim=1, keepdim=False)\n  (outlinear): Linear(in_features=64, out_features=2, bias=True)\n)",
    "crumbs": [
      "Models",
      "Transformers",
      "TransformerModel"
    ]
  },
  {
    "objectID": "models.multimodal.html",
    "href": "models.multimodal.html",
    "title": "Multimodal",
    "section": "",
    "text": "Functionality used for multiple data modalities.\n\nA common scenario in time-series related tasks is the use of multip
…
odel =  XCM(dls.vars, dls.c, dls.len)\nlearn = ts_learner(dls, model, metrics=accuracy)\nxb, yb = dls.one_batch()\n\nbs, c_in, seq_len = xb.shape\nc_out = len(np.unique(yb.cpu().numpy()))\n\nmodel = XCM(c_in, c_out, seq_len, fc_dropout=.5)\ntest_eq(model.to(xb.device)(xb).shape, (bs, c_out))\nmodel = XCM(c_in, c_out, seq_len, concat_pool=True)\ntest_eq(model.to(xb.device)(xb).shape, (bs, c_out))\nmodel = XCM(c_in, c_out, seq_len)\ntest_eq(model.to(xb.device)(xb).shape, (bs, c_out))\nmodel\n\nXCM(\n  (conv2dblock): Sequential(\n    (0): Unsqueeze(dim=1)\n    (1): Conv2dSame(\n      (conv2d_same): Conv2d(1, 128, kernel_size=(1, 51), stride=(1, 1))\n    )\n    (2): BatchNorm2d(128, eps=1e-05, momentum=0.1, affine=True, track_running_stats=True)\n    (3): ReLU()\n  )\n  (conv2d1x1block): Sequential(\n    (0): Conv2d(128, 1, kernel_size=(1, 1), stride=(1, 1))\n    (1): ReLU()\n    (2): Squeeze(dim=1)\n  )\n  (conv1dblock): Sequential(\n    (0): Conv1d(24, 128, kernel_size=(51,), stride=(1,), padding=(25,))\n    (1): BatchNorm1d(128, eps=1e-05, momentum=0.1, affine=True, track_running_stats=True)\n    (2): ReLU()\n  )\n  (conv1d1x1block): Sequential(\n    (0): Conv1d(128, 1, kernel_size=(1,), stride=(1,))\n    (1): ReLU()\n  )\n  (concat): Concat(dim=1)\n  (conv1d): Sequential(\n    (0): Conv1d(25, 128, kernel_size=(51,), stride=(1,), padding=(25,))\n    (1): BatchNorm1d(128, eps=1e-05, momentum=0.1, affine=True, track_running_stats=True)\n    (2): ReLU()\n  )\n  (head): Sequential(\n    (0): GAP1d(\n      (gap): AdaptiveAvgPool1d(output_size=1)\n      (flatten): Reshape(bs)\n    )\n    (1): LinBnDrop(\n      (0): Linear(in_features=128, out_features=6, bias=True)\n    )\n  )\n)\n\n\n\nmodel.show_gradcam(xb, yb)\n\n\n\n\n\n\n\n\n\n\n\n\n\n\n\n\nmodel.show_gradcam(xb[0], yb[0])\n\n[W NNPACK.cpp:53] Could not initialize NNPACK! Reason: Unsupported hardware.\n\n\n\n\n\n\n\n\n\n\n\n\n\n\n\n\n\nbs = 16\nn_vars = 3\nseq_len = 12\nc_out = 10\nxb = torch.rand(bs, n_vars, seq_len)\nnew_head = partial(conv_lin_nd_head, d=(5, 2))\nnet = XCM(n_vars, c_out, seq_len, custom_head=new_head)\nprint(net.to(xb.device)(xb).shape)\nnet.head\n\ntorch.Size([16, 5, 2, 10])\n\n\ncreate_conv_lin_nd_head(\n  (0): Conv1d(128, 10, kernel_size=(1,), stride=(1,))\n  (1): Linear(in_features=12, out_features=10, bias=True)\n  (2): Transpose(-1, -2)\n  (3): Reshape(bs, 5, 2, 10)\n)\n\n\n\nbs = 16\nn_vars = 3\nseq_len = 12\nc_out = 2\nxb = torch.rand(bs, n_vars, seq_len)\nnet = XCM(n_vars, c_out, seq_len)\nchange_model_head(net, create_pool_plus_head, concat_pool=False)\nprint(net.to(xb.device)(xb).shape)\nnet.head\n\ntorch.Size([16, 2])\n\n\nSequential(\n  (0): AdaptiveAvgPool1d(output_size=1)\n  (1): Reshape(bs)\n  (2): BatchNorm1d(128, eps=1e-05, momentum=0.1, affine=True, track_running_stats=True)\n  (3): Linear(in_features=128, out_features=512, bias=False)\n  (4): ReLU(inplace=True)\n  (5): BatchNorm1d(512, eps=1e-05, momentum=0.1, affine=True, track_running_stats=True)\n  (6): Linear(in_features=512, out_features=2, bias=False)\n)",
    "crumbs": [
      "Models",
      "CNNs",
      "XCM"
    ]
  },
  {
    "objectID": "losses.html",
    "href": "losses.html",
    "title": "Losses",
    "section": "",
    "text": "Losses not available in fastai or Pytorch.\n\n\nsource\n\nHuberLoss\n\n HuberLoss (reduction='mean', delta=1.0)\n\n*Huber loss\nCreates a criterion that uses a squa
…
dls, model, metrics=accuracy)\nxb, yb = dls.one_batch()\n\nbs, c_in, seq_len = xb.shape\nc_out = len(np.unique(yb.cpu().numpy()))\n\nmodel = XCMPlus(c_in, c_out, seq_len, fc_dropout=.5)\ntest_eq(model.to(xb.device)(xb).shape, (bs, c_out))\nmodel = XCMPlus(c_in, c_out, seq_len, concat_pool=True)\ntest_eq(model.to(xb.device)(xb).shape, (bs, c_out))\nmodel = XCMPlus(c_in, c_out, seq_len)\ntest_eq(model.to(xb.device)(xb).shape, (bs, c_out))\nmodel\n\nXCMPlus(\n  (backbone): _XCMPlus_Backbone(\n    (conv2dblock): Sequential(\n      (0): Unsqueeze(dim=1)\n      (1): Conv2dSame(\n        (conv2d_same): Conv2d(1, 128, kernel_size=(1, 51), stride=(1, 1))\n      )\n      (2): BatchNorm2d(128, eps=1e-05, momentum=0.1, affine=True, track_running_stats=True)\n      (3): ReLU()\n    )\n    (conv2d1x1block): Sequential(\n      (0): Conv2d(128, 1, kernel_size=(1, 1), stride=(1, 1))\n      (1): ReLU()\n      (2): Squeeze(dim=1)\n    )\n    (conv1dblock): Sequential(\n      (0): Conv1d(24, 128, kernel_size=(51,), stride=(1,), padding=(25,))\n      (1): BatchNorm1d(128, eps=1e-05, momentum=0.1, affine=True, track_running_stats=True)\n      (2): ReLU()\n    )\n    (conv1d1x1block): Sequential(\n      (0): Conv1d(128, 1, kernel_size=(1,), stride=(1,))\n      (1): ReLU()\n    )\n    (concat): Concat(dim=1)\n    (conv1d): Sequential(\n      (0): Conv1d(25, 128, kernel_size=(51,), stride=(1,), padding=(25,))\n      (1): BatchNorm1d(128, eps=1e-05, momentum=0.1, affine=True, track_running_stats=True)\n      (2): ReLU()\n    )\n  )\n  (head): Sequential(\n    (0): GAP1d(\n      (gap): AdaptiveAvgPool1d(output_size=1)\n      (flatten): Reshape(bs)\n    )\n    (1): LinBnDrop(\n      (0): Linear(in_features=128, out_features=6, bias=True)\n    )\n  )\n)\n\n\n\nmodel.show_gradcam(xb, yb)\n\n\n\n\n\n\n\n\n\n\n\n\n\n\n\n\nmodel.show_gradcam(xb[0], yb[0])\n\n[W NNPACK.cpp:53] Could not initialize NNPACK! Reason: Unsupported hardware.\n\n\n\n\n\n\n\n\n\n\n\n\n\n\n\n\n\nbs = 16\nn_vars = 3\nseq_len = 12\nc_out = 1\nxb = torch.rand(bs, n_vars, seq_len)\nnew_head = partial(conv_lin_nd_head, d=(5, 2))\nnet = XCMPlus(n_vars, c_out, seq_len, custom_head=new_head)\nprint(net.to(xb.device)(xb).shape)\nnet.head\n\ntorch.Size([16, 5, 2])\n\n\ncreate_conv_lin_nd_head(\n  (0): Conv1d(128, 1, kernel_size=(1,), stride=(1,))\n  (1): Linear(in_features=12, out_features=10, bias=True)\n  (2): Transpose(-1, -2)\n  (3): Reshape(bs, 5, 2)\n)\n\n\n\nbs = 16\nn_vars = 3\nseq_len = 12\nc_out = 2\nxb = torch.rand(bs, n_vars, seq_len)\nnet = XCMPlus(n_vars, c_out, seq_len)\nchange_model_head(net, create_pool_plus_head, concat_pool=False)\nprint(net.to(xb.device)(xb).shape)\nnet.head\n\ntorch.Size([16, 2])\n\n\nSequential(\n  (0): AdaptiveAvgPool1d(output_size=1)\n  (1): Reshape(bs)\n  (2): BatchNorm1d(128, eps=1e-05, momentum=0.1, affine=True, track_running_stats=True)\n  (3): Linear(in_features=128, out_features=512, bias=False)\n  (4): ReLU(inplace=True)\n  (5): BatchNorm1d(512, eps=1e-05, momentum=0.1, affine=True, track_running_stats=True)\n  (6): Linear(in_features=512, out_features=2, bias=False)\n)",
    "crumbs": [
      "Models",
      "CNNs",
      "XCMPlus"
    ]
  },
  {
    "objectID": "data.core.html",
    "href": "data.core.html",
    "title": "Data Core",
    "section": "",
    "text": "Main Numpy and Times Series functions used throughout the library.\n\n\nfrom tsai.data.external import get_UCR_data\n\n\ndsid = 'OliveOil'\nX_train, y_
…
                   concat_pool=True, bn_final=False, lin_first=False,\n                        y_range=None)\n\n\nbs = 16\nnf = 12\nc_out = 2\nseq_len = 20\nt = torch.rand(bs, nf, seq_len)\ntest_eq(create_pool_plus_head(nf, c_out, seq_len, fc_dropout=0.5)(t).shape, (bs, c_out))\ntest_eq(create_pool_plus_head(nf, c_out, concat_pool=True, fc_dropout=0.5)(t).shape, (bs, c_out))\ncreate_pool_plus_head(nf, c_out, seq_len, fc_dropout=0.5)\n\nSequential(\n  (0): AdaptiveConcatPool1d(\n    (ap): AdaptiveAvgPool1d(output_size=1)\n    (mp): AdaptiveMaxPool1d(output_size=1)\n  )\n  (1): Reshape(bs)\n  (2): BatchNorm1d(24, eps=1e-05, momentum=0.1, affine=True, track_running_stats=True)\n  (3): Dropout(p=0.25, inplace=False)\n  (4): Linear(in_features=24, out_features=512, bias=False)\n  (5): ReLU(inplace=True)\n  (6): BatchNorm1d(512, eps=1e-05, momentum=0.1, affine=True, track_running_stats=True)\n  (7): Dropout(p=0.5, inplace=False)\n  (8): Linear(in_features=512, out_features=2, bias=False)\n)\n\n\n\nsource\n\n\ncreate_conv_head\n\n create_conv_head (*args, adaptive_size=None, y_range=None)\n\n\nbs = 16\nnf = 12\nc_out = 2\nseq_len = 20\nt = torch.rand(bs, nf, seq_len)\ntest_eq(create_conv_head(nf, c_out, seq_len)(t).shape, (bs, c_out))\ntest_eq(create_conv_head(nf, c_out, adaptive_size=50)(t).shape, (bs, c_out))\ncreate_conv_head(nf, c_out, 50)\n\nSequential(\n  (0): ConvBlock(\n    (0): Conv1d(12, 6, kernel_size=(1,), stride=(1,), bias=False)\n    (1): BatchNorm1d(6, eps=1e-05, momentum=0.1, affine=True, track_running_stats=True)\n    (2): ReLU()\n  )\n  (1): ConvBlock(\n    (0): Conv1d(6, 3, kernel_size=(1,), stride=(1,), bias=False)\n    (1): BatchNorm1d(3, eps=1e-05, momentum=0.1, affine=True, track_running_stats=True)\n    (2): ReLU()\n  )\n  (2): ConvBlock(\n    (0): Conv1d(3, 2, kernel_size=(1,), stride=(1,), bias=False)\n    (1): BatchNorm1d(2, eps=1e-05, momentum=0.1, affine=True, track_running_stats=True)\n    (2): ReLU()\n  )\n  (3): GAP1d(\n    (gap): AdaptiveAvgPool1d(output_size=1)\n    (flatten): Reshape(bs)\n  )\n)\n\n\n\nsource\n\n\ncreate_mlp_head\n\n create_mlp_head (nf, c_out, seq_len=None, flatten=True, fc_dropout=0.0,\n                  bn=False, lin_first=False, y_range=None)\n\n\nbs = 16\nnf = 12\nc_out = 2\nseq_len = 20\nt = torch.rand(bs, nf, seq_len)\ntest_eq(create_mlp_head(nf, c_out, seq_len, fc_dropout=0.5)(t).shape, (bs, c_out))\nt = torch.rand(bs, nf, seq_len)\ncreate_mlp_head(nf, c_out, seq_len, bn=True, fc_dropout=.5)\n\nSequential(\n  (0): Reshape(bs)\n  (1): LinBnDrop(\n    (0): BatchNorm1d(240, eps=1e-05, momentum=0.1, affine=True, track_running_stats=True)\n    (1): Dropout(p=0.5, inplace=False)\n    (2): Linear(in_features=240, out_features=2, bias=False)\n  )\n)\n\n\n\nsource\n\n\ncreate_fc_head\n\n create_fc_head (nf, c_out, seq_len=None, flatten=True, lin_ftrs=None,\n                 y_range=None, fc_dropout=0.0, bn=False, bn_final=False,\n                 act=ReLU(inplace=True))\n\n\nbs = 16\nnf = 12\nc_out = 2\nseq_len = 20\nt = torch.rand(bs, nf, seq_len)\ntest_eq(create_fc_head(nf, c_out, seq_len, fc_dropout=0.5)(t).shape, (bs, c_out))\ncreate_mlp_head(nf, c_out, seq_len, bn=True, fc_dropout=.5)\n\nSequential(\n  (0): Reshape(bs)\n  (1): LinBnDrop(\n    (0): BatchNorm1d(240, eps=1e-05, momentum=0.1, affine=True, track_running_stats=True)\n    (1): Dropout(p=0.5, inplace=False)\n    (2): Linear(in_features=240, out_features=2, bias=False)\n  )\n)\n\n\n\nsource\n\n\ncreate_rnn_head\n\n create_rnn_head (*args, fc_dropout=0.0, bn=False, y_range=None)\n\n\nbs = 16\nnf = 12\nc_out = 2\nseq_len = 20\nt = torch.rand(bs, nf, seq_len)\ntest_eq(create_rnn_head(nf, c_out, seq_len, fc_dropout=0.5)(t).shape, (bs, c_out))\ncreate_rnn_head(nf, c_out, seq_len, bn=True, fc_dropout=.5)\n\nSequential(\n  (0): LastStep()\n  (1): LinBnDrop(\n    (0): BatchNorm1d(12, eps=1e-05, momentum=0.1, affine=True, track_running_stats=True)\n    (1): Dropout(p=0.5, inplace=False)\n    (2): Linear(in_features=12, out_features=2, bias=False)\n  )\n)\n\n\n\nsource\n\n\nimputation_head\n\n imputation_head (c_in, c_out, seq_len=None, ks=1, y_range=None,\n                  fc_dropout=0.0)\n\n\nbs = 16\nnf = 12\nni = 2\nseq_len = 20\nt = torch.rand(bs, nf, seq_len)\nhead = imputation_head(nf, ni, seq_len=None, ks=1, y_range=None, fc_dropout=0.)\ntest_eq(head(t).shape, (bs, ni, seq_len))\nhead = i
…
\n create_conv_lin_nd_head (n_in, n_out, seq_len, d, conv_first=True,\n                          conv_bn=False, lin_bn=False, fc_dropout=0.0,\n                          **kwargs)\n\nModule to create a nd output head\n\nbs = 16\nnf = 32\nc = 5\nseq_len = 10\nd = 2\ntarg = torch.randint(0, c, (bs,d))\nt = torch.randn(bs, nf, seq_len)\nhead = conv_lin_nd_head(nf, c, seq_len, d, conv_first=True, fc_dropout=.5)\ninp = head(t)\ntest_eq(inp.shape, (bs, d, c))\nloss = CrossEntropyLossFlat()(inp, targ)\nloss, head\n\n(TensorBase(1.7252, grad_fn=&lt;AliasBackward0&gt;),\n create_conv_lin_nd_head(\n   (0): Conv1d(32, 5, kernel_size=(1,), stride=(1,))\n   (1): Dropout(p=0.5, inplace=False)\n   (2): Linear(in_features=10, out_features=2, bias=True)\n   (3): Transpose(dims=-1, -2).contiguous()\n   (4): Reshape(bs, 2, 5)\n ))\n\n\n\nbs = 16\nnf = 32\nc = 5\nseq_len = 10\nd = [2, 8]\ntarg = torch.randint(0, c, [bs]+d)\nt = torch.randn(bs, nf, seq_len)\nhead = conv_lin_nd_head(nf, c, seq_len, d, conv_first=False, fc_dropout=.5)\ninp = head(t)\ntest_eq(inp.shape, [bs]+d+[c])\nloss = CrossEntropyLossFlat()(inp, targ)\nloss, head\n\n(TensorBase(1.6647, grad_fn=&lt;AliasBackward0&gt;),\n create_conv_lin_nd_head(\n   (0): Dropout(p=0.5, inplace=False)\n   (1): Linear(in_features=10, out_features=16, bias=True)\n   (2): Conv1d(32, 5, kernel_size=(1,), stride=(1,))\n   (3): Transpose(dims=-1, -2).contiguous()\n   (4): Reshape(bs, 2, 8, 5)\n ))\n\n\n\nbs = 16\nnf = 32\nc = 1\nseq_len = 10\nd = 2\ntarg = torch.rand(bs, d)\nt = torch.randn(bs, nf, seq_len)\nhead = conv_lin_nd_head(nf, c, seq_len, d, conv_first=False, fc_dropout=.5)\ninp = head(t)\ntest_eq(inp.shape, (bs, d))\nloss = L1LossFlat()(inp, targ)\nloss, head\n\n(TensorBase(0.7063, grad_fn=&lt;AliasBackward0&gt;),\n create_conv_lin_nd_head(\n   (0): Dropout(p=0.5, inplace=False)\n   (1): Linear(in_features=10, out_features=2, bias=True)\n   (2): Conv1d(32, 1, kernel_size=(1,), stride=(1,))\n   (3): Transpose(dims=-1, -2).contiguous()\n   (4): Reshape(bs, 2)\n ))\n\n\n\nbs = 16\nnf = 32\nc = 1\nseq_len = 10\nd = [2,3]\ntarg = torch.rand(bs, *d)\nt = torch.randn(bs, nf, seq_len)\nhead = conv_lin_nd_head(nf, c, seq_len, d, conv_first=False, fc_dropout=.5)\ninp = head(t)\ntest_eq(inp.shape, [bs]+d)\nloss = L1LossFlat()(inp, targ)\nloss, head\n\n(TensorBase(0.6203, grad_fn=&lt;AliasBackward0&gt;),\n create_conv_lin_nd_head(\n   (0): Dropout(p=0.5, inplace=False)\n   (1): Linear(in_features=10, out_features=6, bias=True)\n   (2): Conv1d(32, 1, kernel_size=(1,), stride=(1,))\n   (3): Transpose(dims=-1, -2).contiguous()\n   (4): Reshape(bs, 2, 3)\n ))\n\n\n\nsource\n\n\nlin_nd_head\n\n lin_nd_head (n_in, n_out, seq_len=None, d=None, flatten=False,\n              use_bn=False, fc_dropout=0.0)\n\nModule to create a nd output head with linear layers\n\nbs = 16\nnf = 32\nseq_len = 50\nx = torch.normal(0, 1, (bs, nf, seq_len))\n\nfor us
…
,\n         [1],\n         [0],\n         [0],\n         [0],\n         [0],\n         [0],\n         [0],\n         [1],\n         [0],\n         [1],\n         [0],\n         [0],\n         [0],\n         [1],\n         [0],\n         [0],\n         [0],\n         [0],\n         [0],\n         [0],\n         [0],\n         [0],\n         [0],\n         [0],\n         [1],\n         [0],\n         [0],\n         [0],\n         [0],\n         [1],\n         [0],\n         [0],\n         [1],\n         [1]], dtype=torch.int8))\n\n\n\nlearn.model\n\nTabularModel(\n  (embeds): ModuleList(\n    (0): Embedding(10, 6)\n    (1): Embedding(17, 8)\n    (2): Embedding(17, 8)\n    (3): Embedding(8, 5)\n    (4): Embedding(16, 8)\n    (5): Embedding(7, 5)\n    (6): Embedding(6, 4)\n    (7): Embedding(3, 3)\n    (8): Embedding(117, 23)\n    (9): Embedding(90, 20)\n    (10): Embedding(43, 13)\n  )\n  (emb_drop): Dropout(p=0.0, inplace=False)\n  (bn_cont): BatchNorm1d(3, eps=1e-05, momentum=0.1, affine=True, track_running_stats=True)\n  (layers): Sequential(\n    (0): LinBnDrop(\n      (0): Linear(in_features=106, out_features=200, bias=False)\n      (1): ReLU(inplace=True)\n      (2): BatchNorm1d(200, eps=1e-05, momentum=0.1, affine=True, track_running_stats=True)\n    )\n    (1): LinBnDrop(\n      (0): Linear(in_features=200, out_features=100, bias=False)\n      (1): ReLU(inplace=True)\n      (2): BatchNorm1d(100, eps=1e-05, momentum=0.1, affine=True, track_running_stats=True)\n    )\n    (2): LinBnDrop(\n      (0): Linear(in_features=100, out_features=2, bias=True)\n    )\n  )\n)\n\n\n\npath = untar_data(URLs.ADULT_SAMPLE)\ndf = pd.read_csv(path/'adult.csv')\ncat_names = ['workclass', 'education', 'education-num', 'marital-status', 'occupation', 'relationship', 'race', 'sex',\n             'capital-gain', 'capital-loss', 'native-country']\ncont_names = ['age', 'fnlwgt', 'hours-per-week']\ntarget = ['salary']\ndf, p
…
q(check_weight(InceptionTimePlus(2,3), is_bn)[0], np.array([1., 1., 1., 1., 1., 1., 1., 1.]))\n\n\nfor i in range(10): InceptionTimePlus(n_vars,c_out,stoch_depth=0.8,depth=9,zero_norm=True)(xb)\n\n\nnet = InceptionTimePlus(2,3,**{'coord': True, 'separable': True, 'zero_norm': True})\ntest_eq(check_weight(net, is_bn)[0], np.array([1., 1., 0., 1., 1., 0., 1., 1.]))\nnet\n\nInceptionTimePlus(\n  (backbone): Sequential(\n    (0): InceptionBlockPlus(\n      (inception): ModuleList(\n        (0): InceptionModulePlus(\n          (bottleneck): ConvBlock(\n            (0): AddCoords1d()\n            (1): Conv1d(3, 32, kernel_size=(1,), stride=(1,), bias=False)\n          )\n          (convs): ModuleList(\n            (0): ConvBlock(\n              (0): AddCoords1d()\n              (1): SeparableConv1d(\n                (depthwise_conv): Conv1d(33, 33, kernel_size=(39,), stride=(1,), padding=(19,), groups=33, bias=False)\n                (pointwise_conv): Conv1d(33, 32, kernel_size=(1,), stride=(1,), bias=False)\n              )\n            )\n            (1): ConvBlock(\n              (0): AddCoords1d()\n              (1): SeparableConv1d(\n                (depthwise_conv): Conv1d(33, 33, kernel_size=(19,), stride=(1,), padding=(9,), groups=33, bias=False)\n                (pointwise_conv): Conv1d(33, 32, kernel_size=(1,), stride=(1,), bias=False)\n              )\n            )\n            (2): ConvBlock(\n              (0): AddCoords1d()\n              (1): SeparableConv1d(\n                (depthwise_conv): Conv1d(33, 33, kernel_size=(9,), stride=(1,), padding=(4,), groups=33, bias=False)\n                (pointwise_conv): Conv1d(33, 32, kernel_size=(1,), stride=(1,), bias=False)\n              )\n            )\n          )\n          (mp_conv): Sequential(\n            (0): MaxPool1d(kernel_size=3, stride=1, padding=1, dilation=1, ceil_mode=False)\n            (1): ConvBlock(\n              (0): AddCoords1d()\n              (1): Conv1d(3, 32, kernel_size=(1,), stride=(1,), bias=False)\n            )\n          )\n          (concat): Concat(dim=1)\n          (norm): BatchNorm1d(128, eps=1e-05, momentum=0.1, affine=True, track_running_stats=True)\n          (act): ReLU()\n        )\n        (1): InceptionModulePlus(\n          (bottleneck): ConvBlock(\n            (0): AddCoords1d()\n            (1): Conv1d(129, 32, kernel_size=(1,), stride=(1,), bias=False)\n          )\n          (convs): ModuleList(\n            (0): ConvBlock(\n              (0): AddCoords1d()\n              (1): SeparableConv1d(\n                (depthwise_conv): Conv1d(33, 33, kernel_size=(39,), stride=(1,), padding=(19,), groups=33, bias=False)\n                (pointwise_conv): Conv1d(33, 32, kernel_size=(1,), stride=(1,), bias=False)\n              )\n            )\n            (1): ConvBlock(\n              (0): AddCoords1d()\n              (1): SeparableConv1d(\n                (depthwise_conv): Conv1d(33, 33, kernel_size=(19,), stride=(1,), padding=(9,), groups=33, bias=False)\n                (pointwise_conv): Conv1d(33, 32, kernel_size=(1,), stride=(1,), bias=False)\n              )\n            )\n            (2): ConvBlock(\n              (0): AddCoords1d()\n              (1): SeparableConv1d(\n                (depthwise_conv): Conv1d(33, 33, kernel_size=(9,), stride=(1,), padding=(4,), groups=33, bias=False)\n                (pointwise_conv): Conv1d(33, 32, kernel_size=(1,), stride=(1,), bias=False)\n              )\n            )\n          )\n          (mp_conv): Sequential(\n            (0): MaxPool1d(kernel_size=3, stride=1, padding=1, dilation=1, ceil_mode=False)\n            (1): ConvBlock(\n              (0): AddCoords1d()\n              (1): Conv1d(129, 32, kernel_size=(1,), stride=(1,), bias=False)\n            )\n          )\n          (concat): Concat(dim=1)\n          (norm): BatchNorm1d(128, eps=1e-05, momentum=0.1, affine=True, track_running_stats=True)\n          (act): ReLU()\n        )\n        (2): InceptionModulePlus(\n          (bottleneck): ConvBlock(\n            (0): AddCoords1d()\n            (1): Conv1d(129, 32, kernel_size=(1,), stride=(1,), bias=False)\n          )\n          (convs): ModuleList(\n            (0): ConvBlock(\n              (0): AddCoords1d()\n              (1): SeparableConv1d(\n                (depthwise_conv): Conv1d(33, 33, kernel_size=(39,), stride=(1,), padding=(19,), groups=33, bias=False)\n                (pointwise_conv): Conv1d(33, 32, kernel_size=(1,), stride=(1,), bias=False)\n              )\n            )\n            (1): ConvBlock(\n              (0): AddCoords1d()\n              (1): SeparableConv1d(\n                (depthwise_conv): Conv1d(33, 33, kernel_size=(19,), stride=(1,), padding=(9,), groups=33, bias=False)\n                (pointwise_conv): Conv1d(33, 32, kernel_size=(1,), stride=(1,), bias=False)\n              )\n            )\n            (2): ConvBlock(\n              (0): AddCoords1d()\n              (1): SeparableConv1d(\n                (depthwise_conv): Conv1d(33, 33, kernel_size=(9,), stride=(1,), padding=(4,), groups=33, bias=False)\n                (pointwise_conv): Conv1d(33, 32, kernel_size=(1,), stride=(1,), bias=False)\n              )\n            )\n          )\n          (mp_conv): Sequential(\n            (0): MaxPool1d(kernel_size=3, stride=1, padding=1, dilation=1, ceil_mode=False)\n            (1): ConvBlock(\n              (0): AddCoords1d()\n              (1): Conv1d(129, 32, kernel_size=(1,), stride=(1,), bias=False)\n            )\n          )\n          (concat): Concat(dim=1)\n          (norm): BatchNorm1d(128, eps=1e-05, momentum=0.1, affine=True, track_running_stats=True)\n        )\n        (3): InceptionModulePlus(\n          (bottleneck): ConvBlock(\n            (0): AddCoords1d()\n            (1): Conv1d(129, 32, kernel_size=(1,), stride=(1,), bias=False)\n          )\n          (convs): ModuleList(\n            (0): ConvBlock(\n              (0): AddCoords1d()\n              (1): SeparableConv1d(\n                (depthwise_conv): Conv1d(33, 33, kernel_size=(39,), stride=(1,), padding=(19,), groups=33, bias=False)\n                (pointwise_conv): Conv1d(33, 32, kernel_size=(1,), stride=(1,), bias=False)\n              )\n            )\n            (1): ConvBlock(\n              (0): AddCoords1d()\n              (1): SeparableConv1d(\n                (depthwise_conv): Conv1d(33, 33, kernel_size=(19,), stride=(1,), padding=(9,), groups=33, bias=False)\n                (pointwise_conv): Conv1d(33, 32, kernel_size=(1,), stride=(1,), bias=False)\n              )\n            )\n            (2): ConvBlock(\n              (0): AddCoords1d()\n              (1): SeparableConv1d(\n                (depthwise_conv): Conv1d(33, 33, kernel_size=(9,), stride=(1,), padding=(4,), groups=33, bias=False)\n                (pointwise_conv): Conv1d(33, 32, kernel_size=(1,), stride=(1,), bias=False)\n              )\n            )\n          )\n          (mp_conv): Sequential(\n            (0): MaxPool1d(kernel_size=3, stride=1, padding=1, dilation=1, ceil_mode=False)\n            (1): ConvBlock(\n              (0): AddCoords1d()\n              (1): Conv1d(129, 32, kernel_size=(1,), stride=(1,), bias=False)\n            )\n          )\n          (concat): Concat(dim=1)\n          (norm): BatchNorm1d(128, eps=1e-05, momentum=0.1, affine=True, track_running_stats=True)\n          (act): ReLU()\n        )\n        (4): InceptionModulePlus(\n          (bottleneck): ConvBlock(\n            (0): AddCoords1d()\n            (1): Conv1d(129, 32, kernel_size=(1,), stride=(1,), bias=False)\n          )\n          (convs): ModuleList(\n            (0): ConvBlock(\n              (0): AddCoords1d()\n              (1): SeparableConv1d(\n                (depthwise_conv): Conv1d(33, 33, kernel_size=(39,), stride=(1,), padding=(19,), groups=33, bias=False)\n                (pointwise_conv): Conv1d(33, 32, kernel_size=(1,), stride=(1,), bias=False)\n              )\n            )\n            (1): ConvBlock(\n              (0): AddCoords1d()\n              (1): SeparableConv1d(\n                (depthwise_conv): Conv1d(33, 33, kernel_size=(19,), stride=(1,), padding=(9,), groups=33, bias=False)\n                (pointwise_conv): Conv1d(33, 32, kernel_size=(1,), stride=(1,), bias=False)\n              )\n            )\n            (2): ConvBlock(\n              (0): AddCoords1d()\n              (1): SeparableConv1d(\n                (depthwise_conv): Conv1d(33, 33, kernel_size=(9,), stride=(1,), padding=(4,), groups=33, bias=False)\n                (pointwise_conv): Conv1d(33, 32, kernel_size=(1,), stride=(1,), bias=False)\n              )\n            )\n          )\n          (mp_conv): Sequential(\n            (0): MaxPool1d(kernel_size=3, stride=1, padding=1, dilation=1, ceil_mode=False)\n            (1): ConvBlock(\n              (0): AddCoords1d()\n              (1): Conv1d(129, 32, kernel_size=(1,), stride=(1,), bias=False)\n            )\n          )\n          (concat): Concat(dim=1)\n          (norm): BatchNorm1d(128, eps=1e-05, momentum=0.1, affine=True, track_running_stats=True)\n          (act): ReLU()\n        )\n        (5): InceptionModulePlus(\n          (bottleneck): ConvBlock(\n            (0): AddCoords1d()\n            (1): Conv1d(129, 32, kernel_size=(1,), stride=(1,), bias=False)\n          )\n          (convs): ModuleList(\n            (0): ConvBlock(\n              (0): AddCoords1d()\n              (1): SeparableConv1d(\n                (depthwise_conv): Conv1d(33, 33, kernel_size=(39,), stride=(1,), padding=(19,), groups=33, bias=False)\n                (pointwise_conv): Conv1d(33, 32, kernel_size=(1,), stride=(1,), bias=False)\n              )\n            )\n            (1): ConvBlock(\n              (0): AddCoords1d()\n              (1): SeparableConv1d(\n                (depthwise_conv): Conv1d(33, 33, kernel_size=(19,), stride=(1,), padding=(9,), groups=33, bias=False)\n                (pointwise_conv): Conv1d(33, 32, kernel_size=(1,), stride=(1,), bias=False)\n              )\n            )\n            (2): ConvBlock(\n              (0): AddCoords1d()\n              (1): SeparableConv1d(\n                (depthwise_conv): Conv1d(33, 33, kernel_size=(9,), stride=(1,), padding=(4,), groups=33, bias=False)\n                (pointwise_conv): Conv1d(33, 32, kernel_size=(1,), stride=(1,), bias=False)\n              )\n            )\n          )\n          (mp_conv): Sequential(\n            (0): MaxPool1d(kernel_size=3, stride=1, padding=1, dilation=1, ceil_mode=False)\n            (1): ConvBlock(\n              (0): AddCoords1d()\n              (1): Conv1d(129, 32, kernel_size=(1,), stride=(1,), bias=False)\n            )\n          )\n          (concat): Concat(dim=1)\n          (norm): BatchNorm1d(128, eps=1e-05, momentum=0.1, affine=True, track_running_stats=True)\n        )\n      )\n      (shortcut): ModuleList(\n        (0): ConvBlock(\n          (0): AddCoords1d()\n          (1): Conv1d(3, 128, kernel_size=(1,), stride=(1,), bias=False)\n          (2): BatchNorm1d(128, eps=1e-05, momentum=0.1, affine=True, track_running_stats=True)\n        )\n        (1): BatchNorm1d(128, eps=1e-05, momentum=0.1, affine=True, track_running_stats=True)\n      )\n      (act): ModuleList(\n        (0): ReLU()\n        (1): ReLU()\n      )\n      (add): Add\n    )\n  )\n  (head): Sequential(\n    (0): Sequential(\n      (0): GAP1d(\n        (gap): AdaptiveAvgPool1d(output_size=1)\n        (flatten): Reshape(bs)\n      )\n      (1): LinBnDrop(\n        (0): Linear(in_features=128, out_features=3, bias=True)\n      )\n    )\n  )\n)\n\n\n\nsource\n\n\nMultiInceptionTimePlus\n\n MultiInceptionTimePlus (feat_list, c_out, seq_len=None, nf=32,\n                         nb_filters=None, depth=6, stoch_depth=1.0,\n                         flatten=False, concat_pool=False, fc_dropout=0.0,\n                         bn=False, y_range=None, custom_head=None)\n\nClass t
…
nv2d(20,64,5)),\n          ('relu2', nn.ReLU())\n        ]))*\n\nxb = torch.rand(16, 3, 10)\ntest_eq(FCNPlus(3, 2)(xb).shape, [xb.shape[0], 2])\ntest_eq(FCNPlus(3, 2, coord=True, separable=True, act=Swish, residual=True)(xb).shape, [xb.shape[0], 2])\ntest_eq(nn.Sequential(*FCNPlus(3, 2).children())(xb).shape, [xb.shape[0], 2])\ntest_eq(FCNPlus(3, 2, custom_head=partial(mlp_head, seq_len=10))(xb).shape, [xb.shape[0], 2])\n\n\nfrom tsai.models.utils import *\n\n\nmodel = build_ts_model(FCNPlus, 2, 3)\nmodel[-1]\n\nSequential(\n  (0): AdaptiveAvgPool1d(output_size=1)\n  (1): Squeeze(dim=-1)\n  (2): Linear(in_features=128, out_features=3, bias=True)\n)\n\n\n\nfrom tsai.models.FCN import *\n\n\ntest_eq(count_parameters(FCN(3,2)), count_parameters(FCNPlus(3,2)))\n\n\nFCNPlus(3,2)\n\nFCNPlus(\n  (backbone): _FCNBlockPlus(\n    (convblock1): ConvBlock(\n      (0): Conv1d(3, 128, kernel_size=(7,), stride=(1,), padding=(3,), bias=False)\n      (1): BatchNorm1d(128, eps=1e-05, momentum=0.1, affine=True, track_running_stats=True)\n      (2): ReLU()\n    )\n    (convblock2): ConvBlock(\n      (0): Conv1d(128, 256, kernel_size=(5,), stride=(1,), padding=(2,), bias=False)\n      (1): BatchNorm1d(256, eps=1e-05, momentum=0.1, affine=True, track_running_stats=True)\n      (2): ReLU()\n    )\n    (convblock3): ConvBlock(\n      (0): Conv1d(256, 128, kernel_size=(3,), stride=(1,), padding=(1,), bias=False)\n      (1): BatchNorm1d(128, eps=1e-05, momentum=0.1, affine=True, track_running_stats=True)\n      (2): ReLU()\n    )\n    (add): Sequential()\n  )\n  (head): Sequential(\n    (0): AdaptiveAvgPool1d(output_size=1)\n    (1): Squeeze(dim=-1)\n    (2): Linear(in_features=128, out_features=2, bias=True)\n  )\n)",
    "crumbs": [
      "Models",
      "CNNs",
      "FCNPlus"
    ]
  },
  {
    "objectID": "models.xceptiontimeplus.html",
    "href": "models.xceptiontimeplus.html",
    "title": "XceptionTimePlus",
    "section": "",
    "text": "This is an unofficial PyTorch implementation by Ignacio Oguiza - oguiza@timeseriesAI.co modified on:\nFawaz, H. 
…
1d))), 25)\ntest_eq(len(get_layers(m, cond=is_layer(nn.Conv1d))), 37)\nm = XceptionTimePlus(2,3, bottleneck=False, coord=True)\ntest_eq(len(get_layers(m, cond=is_layer(AddCoords1d))), 21)\ntest_eq(len(get_layers(m, cond=is_layer(nn.Conv1d))), 33)\n\n\nm = XceptionTimePlus(vars, c_out, seq_len=seq_len, custom_head=mlp_head)\ntest_eq(m(xb).shape, [bs, c_out])\n\n\nXceptionTimePlus(vars, c_out, coord=True)\n\nXceptionTimePlus(\n  (backbone): XceptionBlockPlus(\n    (xception): ModuleList(\n      (0): XceptionModulePlus(\n        (bottleneck): ConvBlock(\n          (0): AddCoords1d()\n          (1): Conv1d(4, 16, kernel_size=(1,), stride=(1,), bias=False)\n        )\n        (convs): ModuleList(\n          (0): ConvBlock(\n            (0): AddCoords1d()\n            (1): SeparableConv1d(\n              (depthwise_conv): Conv1d(17, 17, kernel_size=(39,), stride=(1,), padding=(19,), groups=17, bias=False)\n              (pointwise_conv): Conv1d(17, 16, kernel_size=(1,), stride=(1,), bias=False)\n            )\n          )\n          (1): ConvBlock(\n            (0): AddCoords1d()\n            (1): SeparableConv1d(\n              (depthwise_conv): Conv1d(17, 17, kernel_size=(19,), stride=(1,), padding=(9,), groups=17, bias=False)\n              (pointwise_conv): Conv1d(17, 16, kernel_size=(1,), stride=(1,), bias=False)\n            )\n          )\n          (2): ConvBlock(\n            (0): AddCoords1d()\n            (1): SeparableConv1d(\n              (depthwise_conv): Conv1d(17, 17, kernel_size=(9,), stride=(1,), padding=(4,), groups=17, bias=False)\n              (pointwise_conv): Conv1d(17, 16, kernel_size=(1,), stride=(1,), bias=False)\n            )\n          )\n        )\n        (mp_conv): Sequential(\n          (0): MaxPool1d(kernel_size=3, stride=1, padding=1, dilation=1, ceil_mode=False)\n          (1): ConvBlock(\n            (0): AddCoords1d()\n            (1): Conv1d(4, 16, kernel_size=(1,), stride=(1,), bias=False)\n          )\n        )\n        (concat): Concat(dim=1)\n      )\n      (1): XceptionModulePlus(\n        (bottleneck): ConvBlock(\n          (0): AddCoords1d()\n          (1): Conv1d(65, 32, kernel_size=(1,), stride=(1,), bias=False)\n        )\n        (convs): ModuleList(\n          (0): ConvBlock(\n            (0): AddCoords1d()\n            (1): SeparableConv1d(\n              (depthwise_conv): Conv1d(33, 33, kernel_size=(39,), stride=(1,), padding=(19,), groups=33, bias=False)\n              (pointwise_conv): Conv1d(33, 32, kernel_size=(1,), stride=(1,), bias=False)\n            )\n          )\n          (1): ConvBlock(\n            (0): AddCoords1d()\n            (1): SeparableConv1d(\n              (depthwise_conv): Conv1d(33, 33, kernel_size=(19,), stride=(1,), padding=(9,), groups=33, bias=False)\n              (pointwise_conv): Conv1d(33, 32, kernel_size=(1,), stride=(1,), bias=False)\n            )\n          )\n          (2): ConvBlock(\n            (0): AddCoords1d()\n            (1): SeparableConv1d(\n              (depthwise_conv): Conv1d(33, 33, kernel_size=(9,), stride=(1,), padding=(4,), groups=33, bias=False)\n              (pointwise_conv): Conv1d(33, 32, kernel_size=(1,), stride=(1,), bias=False)\n            )\n          )\n        )\n        (mp_conv): Sequential(\n          (0): MaxPool1d(kernel_size=3, stride=1, padding=1, dilation=1, ceil_mode=False)\n          (1): ConvBlock(\n            (0): AddCoords1d()\n            (1): Conv1d(65, 32, kernel_size=(1,), stride=(1,), bias=False)\n          )\n        )\n        (concat): Concat(dim=1)\n      )\n      (2): XceptionModulePlus(\n        (bottleneck): ConvBlock(\n          (0): AddCoords1d()\n          (1): Conv1d(129, 64, kernel_size=(1,), stride=(1,), bias=False)\n        )\n        (convs): ModuleList(\n          (0): ConvBlock(\n            (0): AddCoords1d()\n            (1): SeparableConv1d(\n              (depthwise_conv): Conv1d(65, 65, kernel_size=(39,), stride=(1,), padding=(19,), groups=65, bias=False)\n              (pointwise_conv): Conv1d(65, 64, kernel_size=(1,), stride=(1,), bias=False)\n            )\n          )\n          (1): ConvBlock(\n            (0): AddCoords1d()\n            (1): SeparableConv1d(\n              (depthwise_conv): Conv1d(65, 65, kernel_size=(19,), stride=(1,), padding=(9,), groups=65, bias=False)\n              (pointwise_conv): Conv1d(65, 64, kernel_size=(1,), stride=(1,), bias=False)\n            )\n          )\n          (2): ConvBlock(\n            (0): AddCoords1d()\n            (1): SeparableConv1d(\n              (depthwise_conv): Conv1d(65, 65, kernel_size=(9,), stride=(1,), padding=(4,), groups=65, bias=False)\n              (pointwise_conv): Conv1d(65, 64, kernel_size=(1,), stride=(1,), bias=False)\n            )\n          )\n        )\n        (mp_conv): Sequential(\n          (0): MaxPool1d(kernel_size=3, stride=1, padding=1, dilation=1, ceil_mode=False)\n          (1): ConvBlock(\n            (0): AddCoords1d()\n            (1): Conv1d(129, 64, kernel_size=(1,), stride=(1,), bias=False)\n          )\n        )\n        (concat): Concat(dim=1)\n      )\n      (3): XceptionModulePlus(\n        (bottleneck): ConvBlock(\n          (0): AddCoords1d()\n          (1): Conv1d(257, 128, kernel_size=(1,), stride=(1,), bias=False)\n        )\n        (convs): ModuleList(\n          (0): ConvBlock(\n            (0): AddCoords1d()\n            (1): SeparableConv1d(\n              (depthwise_conv): Conv1d(129, 129, kernel_size=(39,), stride=(1,), padding=(19,), groups=129, bias=False)\n              (pointwise_conv): Conv1d(129, 128, kernel_size=(1,), stride=(1,), bias=False)\n            )\n          )\n          (1): ConvBlock(\n            (0): AddCoords1d()\n            (1): SeparableConv1d(\n              (depthwise_conv): Conv1d(129, 129, kernel_size=(19,), stride=(1,), padding=(9,), groups=129, bias=False)\n              (pointwise_conv): Conv1d(129, 128, kernel_size=(1,), stride=(1,), bias=False)\n            )\n          )\n          (2): ConvBlock(\n            (0): AddCoords1d()\n            (1): SeparableConv1d(\n              (depthwise_conv): Conv1d(129, 129, kernel_size=(9,), stride=(1,), padding=(4,), groups=129, bias=False)\n              (pointwise_conv): Conv1d(129, 128, kernel_size=(1,), stride=(1,), bias=False)\n            )\n          )\n        )\n        (mp_conv): Sequential(\n          (0): MaxPool1d(kernel_size=3, stride=1, padding=1, dilation=1, ceil_mode=False)\n          (1): ConvBlock(\n            (0): AddCoords1d()\n            (1): Conv1d(257, 128, kernel_size=(1,), stride=(1,), bias=False)\n          )\n        )\n        (concat): Concat(dim=1)\n      )\n    )\n    (shortcut): ModuleList(\n      (0): ConvBlock(\n        (0): AddCoords1d()\n        (1): Conv1d(4, 128, kernel_size=(1,), stride=(1,), bias=False)\n        (2): BatchNorm1d(128, eps=1e-05, momentum=0.1, affine=True, track_running_stats=True)\n      )\n      (1): ConvBlock(\n        (0): AddCoords1d()\n        (1): Conv1d(129, 512, kernel_size=(1,), stride=(1,), bias=False)\n        (2): BatchNorm1d(512, eps=1e-05, momentum=0.1, affine=True, track_running_stats=True)\n      )\n    )\n    (act): ModuleList(\n      (0): ReLU()\n      (1): ReLU()\n    )\n    (add): Add\n  )\n  (head): Sequential(\n    (0): AdaptiveAvgPool1d(output_size=50)\n    (1): ConvBlock(\n      (0): AddCoords1d()\n      (1): Conv1d(513, 256, kernel_size=(1,), stride=(1,), bias=False)\n      (2): BatchNorm1d(256, eps=1e-05, momentum=0.1, affine=True, track_running_stats=True)\n      (3): ReLU()\n    )\n    (2): ConvBlock(\n      (0): AddCoords1d()\n      (1): Conv1d(257, 128, kernel_size=(1,), stride=(1,), bias=False)\n      (2): BatchNorm1d(128, eps=1e-05, momentum=0.1, affine=True, track_running_stats=True)\n      (3): ReLU()\n    )\n    (3): ConvBlock(\n      (0): AddCoords1d()\n      (1): Conv1d(129, 2, kernel_size=(1,), stride=(1,), bias=False)\n      (2): BatchNorm1d(2, eps=1e-05, momentum=0.1, affine=True, track_running_stats=True)\n      (3): ReLU()\n    )\n    (4): GAP1d(\n      (gap): AdaptiveAvgPool1d(output_size=1)\n      (flatten): Reshape(bs)\n    )\n  )\n)",
    "crumbs": [
      "Models",
      "CNNs",
      "XceptionTimePlus"
    ]
  },
  {
    "objectID": "analysis.html",
    "href": "analysis.html",
    "title": "Analysis",
    "section": "",
    "text": "fastai Learner extensions useful to perform prediction analysis.\nsource",
…
rs = 3\nseq_len = 12\nc_out = 2\nxb = torch.rand(bs, n_vars, seq_len)\ntest_eq(RNN_FCN(n_vars, c_out, seq_len)(xb).shape, [bs, c_out])\ntest_eq(LSTM_FCN(n_vars, c_out, seq_len)(xb).shape, [bs, c_out])\ntest_eq(MLSTM_FCN(n_vars, c_out, seq_len)(xb).shape, [bs, c_out])\ntest_eq(GRU_FCN(n_vars, c_out, shuffle=False)(xb).shape, [bs, c_out])\ntest_eq(GRU_FCN(n_vars, c_out, seq_len, shuffle=False)(xb).shape, [bs, c_out])\n\n\nLSTM_FCN(n_vars, seq_len, c_out, se=8)\n\nLSTM_FCN(\n  (rnn): LSTM(2, 100, batch_first=True)\n  (rnn_dropout): Dropout(p=0.8, inplace=False)\n  (convblock1): ConvBlock(\n    (0): Conv1d(3, 128, kernel_size=(7,), stride=(1,), padding=(3,), bias=False)\n    (1): BatchNorm1d(128, eps=1e-05, momentum=0.1, affine=True, track_running_stats=True)\n    (2): ReLU()\n  )\n  (se1): SqueezeExciteBlock(\n    (avg_pool): GAP1d(\n      (gap): AdaptiveAvgPool1d(output_size=1)\n      (flatten): Flatten(full=False)\n    )\n    (fc): Sequential(\n      (0): Linear(in_features=128, out_features=16, bias=False)\n      (1): ReLU()\n      (2): Linear(in_features=16, out_features=128, bias=False)\n      (3): Sigmoid()\n    )\n  )\n  (convblock2): ConvBlock(\n    (0): Conv1d(128, 256, kernel_size=(5,), stride=(1,), padding=(2,), bias=False)\n    (1): BatchNorm1d(256, eps=1e-05, momentum=0.1, affine=True, track_running_stats=True)\n    (2): ReLU()\n  )\n  (se2): SqueezeExciteBlock(\n    (avg_pool): GAP1d(\n      (gap): AdaptiveAvgPool1d(output_size=1)\n      (flatten): Flatten(full=False)\n    )\n    (fc): Sequential(\n      (0): Linear(in_features=256, out_features=32, bias=False)\n      (1): ReLU()\n      (2): Linear(in_features=32, out_features=256, bias=False)\n      (3): Sigmoid()\n    )\n  )\n  (convblock3): ConvBlock(\n    (0): Conv1d(256, 128, kernel_size=(3,), stride=(1,), padding=(1,), bias=False)\n    (1): BatchNorm1d(128, eps=1e-05, momentum=0.1, affine=True, track_running_stats=True)\n    (2): ReLU()\n  )\n  (gap): GAP1d(\n    (gap): AdaptiveAvgPool1d(output_size=1)\n    (flatten): Flatten(full=False)\n  )\n  (concat): Concat(dim=1)\n  (fc): Linear(in_features=228, out_features=12, bias=True)\n)",
    "crumbs": [
      "Models",
      "Hybrid models",
      "RNN_FCN"
    ]
  },
  {
    "objectID": "tutorials.html",
    "href": "tutorials.html",
    "title": "Tutorial notebooks",
    "section": "",
    "text": "A number of tutorials have been created to help you get started to use tsai with time series data. Please, feel free to open the notebooks (you can open them in Colab if you want) and tweak them to do your own experiments.",
…
    "section": "",
    "text": "This is an unofficial PyTorch implementation created by Ignacio Oguiza - oguiza@timeseriesAI.co\n\n\nsource\n\nResNet\n\n ResNet (c_in, c_out)\n\nSame as nn.Module, but no need for subclasses to call super().__init__\n\nsource\n\n\nResBlock\n\n ResBlock (ni, nf, kss=[7, 5, 3])\n\nSame as nn.Module, but no need for subclasses to call super().__init__\n\nxb = torch.rand(2, 3, 4)\ntest_eq(ResNet(3,2)(xb).shape, [xb.shape[0], 2])\ntest_eq(count_parameters(ResNet(3, 2)), 479490) # for (3,2)\n\n\nResNet(3,2)\n\nResNet(\n  (resblock1): ResBlock(\n    (convblock1): ConvBlock(\n      (0): Conv1d(3, 64, kernel_size=(7,), stride=(1,), padding=(3,), bias=False)\n      (1): BatchNorm1d(64, eps=1e-05, momentum=0.1, affine=True, track_running_stats=True)\n      (2): ReLU()\n    )\n    (convblock2): ConvBlock(\n      (0): Conv1d(64, 64, kernel_size=(5,), stride=(1,), padding=(2,), bias=False)\n      (1): BatchNorm1d(64, eps=1e-05, momentum=0.1, affine=True, track_running_stats=True)\n      (2): ReLU()\n    )\n    (convblock3): ConvBlock(\n      (0): Conv1d(64, 64, kernel_size=(3,), stride=(1,), padding=(1,), bias=False)\n      (1): BatchNorm1d(64, eps=1e-05, momentum=0.1, affine=True, track_running_stats=True)\n    )\n    (shortcut): ConvBlock(\n      (0): Conv1d(3, 64, kernel_size=(1,), stride=(1,), bias=False)\n      (1): BatchNorm1d(64, eps=1e-05, momentum=0.1, affine=True, track_running_stats=True)\n    )\n    (add): Add\n    (act): ReLU()\n  )\n  (resblock2): ResBlock(\n    (convblock1): ConvBlock(\n      (0): Conv1d(64, 128, kernel_size=(7,), stride=(1,), padding=(3,), bias=False)\n      (1): BatchNorm1d(128, eps=1e-05, momentum=0.1, affine=True, track_running_stats=True)\n      (2): ReLU()\n    )\n    (convblock2): ConvBlock(\n      (0): Conv1d(128, 128, kernel_size=(5,), stride=(1,), padding=(2,), bias=False)\n      (1): BatchNorm1d(128, eps=1e-05, momentum=0.1, affine=True, track_running_stats=True)\n      (2): ReLU()\n    )\n    (convblock3): ConvBlock(\n      (0): Conv1d(128, 128, kernel_size=(3,), stride=(1,), padding=(1,), bias=False)\n      (1): BatchNorm1d(128, eps=1e-05, momentum=0.1, affine=True, track_running_stats=True)\n    )\n    (shortcut): ConvBlock(\n      (0): Conv1d(64, 128, kernel_size=(1,), stride=(1,), bias=False)\n      (1): BatchNorm1d(128, eps=1e-05, momentum=0.1, affine=True, track_running_stats=True)\n    )\n    (add): Add\n    (act): ReLU()\n  )\n  (resblock3): ResBlock(\n    (convblock1): ConvBlock(\n      (0): Conv1d(128, 128, kernel_size=(7,), stride=(1,), padding=(3,), bias=False)\n      (1): BatchNorm1d(128, eps=1e-05, momentum=0.1, affine=True, track_running_stats=True)\n      (2): ReLU()\n    )\n    (convblock2): ConvBlock(\n      (0): Conv1d(128, 128, kernel_size=(5,), stride=(1,), padding=(2,), bias=False)\n      (1): BatchNorm1d(128, eps=1e-05, momentum=0.1, affine=True, track_running_stats=True)\n      (2): ReLU()\n    )\n    (convblock3): ConvBlock(\n      (0): Conv1d(128, 128, kernel_size=(3,), stride=(1,), padding=(1,), bias=False)\n      (1): BatchNorm1d(128, eps=1e-05, momentum=0.1, affine=True, track_running_stats=True)\n    )\n    (shortcut): BatchNorm1d(128, eps=1e-05, momentum=0.1, affine=True, track_running_stats=True)\n    (add): Add\n    (act): ReLU()\n  )\n  (gap): AdaptiveAvgPool1d(output_size=1)\n  (squeeze): Squeeze(dim=-1)\n  (fc): Linear(in_features=128, out_features=2, bias=True)\n)",
    "crumbs": [
      "Models",
      "CNNs",
      "ResNet"
    ]
  },
  {
    "objectID": "models.minirocketplus_pytorch.html",
    "href": "models.minirocketplus_pytorch.html",
    "title": "MINIROCKETPlus Pytorch",
    "section": "",
    "text": "This is a modified Pytorch implementation of MiniRocket originally developed by Malcolm McLean and I
…
n\n\nSampaddingConv1D_BN\n\n SampaddingConv1D_BN (in_channels, out_channels, kernel_size)\n\nSame as nn.Module, but no need for subclasses to call super().__init__\n\nbs = 16\nc_in = 3\nseq_len = 12\nc_out = 2\nxb = torch.rand(bs, c_in, seq_len)\nm = create_model(OmniScaleCNN, c_in, c_out, seq_len)\ntest_eq(OmniScaleCNN(c_in, c_out, seq_len)(xb).shape, [bs, c_out])\nm\n\nOmniScaleCNN(\n  (net): Sequential(\n    (0): build_layer_with_layer_parameter(\n      (conv_list): ModuleList(\n        (0): SampaddingConv1D_BN(\n          (padding): ConstantPad1d(padding=(0, 0), value=0)\n          (conv1d): Conv1d(3, 56, kernel_size=(1,), stride=(1,))\n          (bn): BatchNorm1d(56, eps=1e-05, momentum=0.1, affine=True, track_running_stats=True)\n        )\n        (1): SampaddingConv1D_BN(\n          (padding): ConstantPad1d(padding=(0, 1), value=0)\n          (conv1d): Conv1d(3, 56, kernel_size=(2,), stride=(1,))\n          (bn): BatchNorm1d(56, eps=1e-05, momentum=0.1, affine=True, track_running_stats=True)\n        )\n        (2): SampaddingConv1D_BN(\n          (padding): ConstantPad1d(padding=(1, 1), value=0)\n          (conv1d): Conv1d(3, 56, kernel_size=(3,), stride=(1,))\n          (bn): BatchNorm1d(56, eps=1e-05, momentum=0.1, affine=True, track_running_stats=True)\n        )\n      )\n    )\n    (1): build_layer_with_layer_parameter(\n      (conv_list): ModuleList(\n        (0): SampaddingConv1D_BN(\n          (padding): ConstantPad1d(padding=(0, 0), value=0)\n          (conv1d): Conv1d(168, 227, kernel_size=(1,), stride=(1,))\n          (bn): BatchNorm1d(227, eps=1e-05, momentum=0.1, affine=True, track_running_stats=True)\n        )\n        (1): SampaddingConv1D_BN(\n          (padding): ConstantPad1d(padding=(0, 1), value=0)\n          (conv1d): Conv1d(168, 227, kernel_size=(2,), stride=(1,))\n          (bn): BatchNorm1d(227, eps=1e-05, momentum=0.1, affine=True, track_running_stats=True)\n        )\n        (2): SampaddingConv1D_BN(\n          (padding): ConstantPad1d(padding=(1, 1), value=0)\n          (conv1d): Conv1d(168, 227, kernel_size=(3,), stride=(1,))\n          (bn): BatchNorm1d(227, eps=1e-05, momentum=0.1, affine=True, track_running_stats=True)\n        )\n      )\n    )\n    (2): build_layer_with_layer_parameter(\n      (conv_list): ModuleList(\n        (0): SampaddingConv1D_BN(\n          (padding): ConstantPad1d(padding=(0, 0), value=0)\n          (conv1d): Conv1d(681, 510, kernel_size=(1,), stride=(1,))\n          (bn): BatchNorm1d(510, eps=1e-05, momentum=0.1, affine=True, track_running_stats=True)\n        )\n        (1): SampaddingConv1D_BN(\n          (padding): ConstantPad1d(padding=(0, 1), value=0)\n          (conv1d): Conv1d(681, 510, kernel_size=(2,), stride=(1,))\n          (bn): BatchNorm1d(510, eps=1e-05, momentum=0.1, affine=True, track_running_stats=True)\n        )\n      )\n    )\n  )\n  (gap): GAP1d(\n    (gap): AdaptiveAvgPool1d(output_size=1)\n    (flatten): Flatten(full=False)\n  )\n  (hidden): Linear(in_features=1020, out_features=2, bias=True)\n)",
    "crumbs": [
      "Models",
      "CNNs",
      "OmniScaleCNN"
    ]
  },
  {
    "objectID": "export.html",
    "href": "export.html",
    "title": "nb2py",
    "section": "",
    "text": "nb2py will allow you to convert the notebook (.ipynb) where the function is executed to a python script.\n\nThe conversion applies these rules:\n\nThe noteb
…
 for subclasses to call super().__init__\n\nfrom tsai.models.utils import count_parameters\n\n\nbs = 16\nvars = 1\nseq_len = 12\nc_out = 2\nxb = torch.rand(bs, vars, seq_len)\ntest_eq(InceptionTime(vars,c_out)(xb).shape, [bs, c_out])\ntest_eq(InceptionTime(vars,c_out, bottleneck=False)(xb).shape, [bs, c_out])\ntest_eq(InceptionTime(vars,c_out, residual=False)(xb).shape, [bs, c_out])\ntest_eq(count_parameters(InceptionTime(3, 2)), 455490)\n\n\nInceptionTime(3,2)\n\nInceptionTime(\n  (inceptionblock): InceptionBlock(\n    (inception): ModuleList(\n      (0): InceptionModule(\n        (bottleneck): Conv1d(3, 32, kernel_size=(1,), stride=(1,), bias=False)\n        (convs): ModuleList(\n          (0): Conv1d(32, 32, kernel_size=(39,), stride=(1,), padding=(19,), bias=False)\n          (1): Conv1d(32, 32, kernel_size=(19,), stride=(1,), padding=(9,), bias=False)\n          (2): Conv1d(32, 32, kernel_size=(9,), stride=(1,), padding=(4,), bias=False)\n        )\n        (maxconvpool): Sequential(\n          (0): MaxPool1d(kernel_size=3, stride=1, padding=1, dilation=1, ceil_mode=False)\n          (1): Conv1d(3, 32, kernel_size=(1,), stride=(1,), bias=False)\n        )\n        (concat): Concat(dim=1)\n        (bn): BatchNorm1d(128, eps=1e-05, momentum=0.1, affine=True, track_running_stats=True)\n        (act): ReLU()\n      )\n      (1): InceptionModule(\n        (bottleneck): Conv1d(128, 32, kernel_size=(1,), stride=(1,), bias=False)\n        (convs): ModuleList(\n          (0): Conv1d(32, 32, kernel_size=(39,), stride=(1,), padding=(19,), bias=False)\n          (1): Conv1d(32, 32, kernel_size=(19,), stride=(1,), padding=(9,), bias=False)\n          (2): Conv1d(32, 32, kernel_size=(9,), stride=(1,), padding=(4,), bias=False)\n        )\n        (maxconvpool): Sequential(\n          (0): MaxPool1d(kernel_size=3, stride=1, padding=1, dilation=1, ceil_mode=False)\n          (1): Conv1d(128, 32, kernel_size=(1,), stride=(1,), bias=False)\n        )\n        (concat): Concat(dim=1)\n        (bn): BatchNorm1d(128, eps=1e-05, momentum=0.1, affine=True, track_running_stats=True)\n        (act): ReLU()\n      )\n      (2): InceptionModule(\n        (bottleneck): Conv1d(128, 32, kernel_size=(1,), stride=(1,), bias=False)\n        (convs): ModuleList(\n          (0): Conv1d(32, 32, kernel_size=(39,), stride=(1,), padding=(19,), bias=False)\n          (1): Conv1d(32, 32, kernel_size=(19,), stride=(1,), padding=(9,), bias=False)\n          (2): Conv1d(32, 32, kernel_size=(9,), stride=(1,), padding=(4,), bias=False)\n        )\n        (maxconvpool): Sequential(\n          (0): MaxPool1d(kernel_size=3, stride=1, padding=1, dilation=1, ceil_mode=False)\n          (1): Conv1d(128, 32, kernel_size=(1,), stride=(1,), bias=False)\n        )\n        (concat): Concat(dim=1)\n        (bn): BatchNorm1d(128, eps=1e-05, momentum=0.1, affine=True, track_running_stats=True)\n        (act): ReLU()\n      )\n      (3): InceptionModule(\n        (bottleneck): Conv1d(128, 32, kernel_size=(1,), stride=(1,), bias=False)\n        (convs): ModuleList(\n          (0): Conv1d(32, 32, kernel_size=(39,), stride=(1,), padding=(19,), bias=False)\n          (1): Conv1d(32, 32, kernel_size=(19,), stride=(1,), padding=(9,), bias=False)\n          (2): Conv1d(32, 32, kernel_size=(9,), stride=(1,), padding=(4,), bias=False)\n        )\n        (maxconvpool): Sequential(\n          (0): MaxPool1d(kernel_size=3, stride=1, padding=1, dilation=1, ceil_mode=False)\n          (1): Conv1d(128, 32, kernel_size=(1,), stride=(1,), bias=False)\n        )\n        (concat): Concat(dim=1)\n        (bn): BatchNorm1d(128, eps=1e-05, momentum=0.1, affine=True, track_running_stats=True)\n        (act): ReLU()\n      )\n      (4): InceptionModule(\n        (bottleneck): Conv1d(128, 32, kernel_size=(1,), stride=(1,), bias=False)\n        (convs): ModuleList(\n          (0): Conv1d(32, 32, kernel_size=(39,), stride=(1,), padding=(19,), bias=False)\n          (1): Conv1d(32, 32, kernel_size=(19,), stride=(1,), padding=(9,), bias=False)\n          (2): Conv1d(32, 32, kernel_size=(9,), stride=(1,), padding=(4,), bias=False)\n        )\n        (maxconvpool): Sequential(\n          (0): MaxPool1d(kernel_size=3, stride=1, padding=1, dilation=1, ceil_mode=False)\n          (1): Conv1d(128, 32, kernel_size=(1,), stride=(1,), bias=False)\n        )\n        (concat): Concat(dim=1)\n        (bn): BatchNorm1d(128, eps=1e-05, momentum=0.1, affine=True, track_running_stats=True)\n        (act): ReLU()\n      )\n      (5): InceptionModule(\n        (bottleneck): Conv1d(128, 32, kernel_size=(1,), stride=(1,), bias=False)\n        (convs): ModuleList(\n          (0): Conv1d(32, 32, kernel_size=(39,), stride=(1,), padding=(19,), bias=False)\n          (1): Conv1d(32, 32, kernel_size=(19,), stride=(1,), padding=(9,), bias=False)\n          (2): Conv1d(32, 32, kernel_size=(9,), stride=(1,), padding=(4,), bias=False)\n        )\n        (maxconvpool): Sequential(\n          (0): MaxPool1d(kernel_size=3, stride=1, padding=1, dilation=1, ceil_mode=False)\n          (1): Conv1d(128, 32, kernel_size=(1,), stride=(1,), bias=False)\n        )\n        (concat): Concat(dim=1)\n        (bn): BatchNorm1d(128, eps=1e-05, momentum=0.1, affine=True, track_running_stats=True)\n        (act): ReLU()\n      )\n    )\n    (shortcut): ModuleList(\n      (0): ConvBlock(\n        (0): Conv1d(3, 128, kernel_size=(1,), stride=(1,), bias=False)\n        (1): BatchNorm1d(128, eps=1e-05, momentum=0.1, affine=True, track_running_stats=True)\n      )\n      (1): BatchNorm1d(128, eps=1e-05, momentum=0.1, affine=True, track_running_stats=True)\n    )\n    (add): Add\n    (act): ReLU()\n  )\n  (gap): GAP1d(\n    (gap): AdaptiveAvgPool1d(output_size=1)\n    (flatten): Flatten(full=False)\n  )\n  (fc): Linear(in_features=128, out_features=2, bias=True)\n)",
    "crumbs": [
      "Models",
      "CNNs",
      "InceptionTime"
    ]
  },
  {
    "objectID": "models.fcn.html",
    "href": "models.fcn.html",
    "title": "FCN",
    "section": "",
    "text": "This is an unofficial PyTorch implementation created by Ignacio Oguiza (oguiza@timeseriesAI.co) based on:\n\nWang, Z., Yan, W., & Oates, T. (2017, May
…
. Data Mining and Knowledge Discovery, 33(4), 917-963.\n\nOfficial FCN TensorFlow implementation: https://github.com/hfawaz/dl-4-tsc/blob/master/classifiers/fcn.py.\nNote: kernel filter size 8 has been replaced by 7 (since we believe it’s a bug).\n\nsource\n\nFCN\n\n FCN (c_in, c_out, layers=[128, 256, 128], kss=[7, 5, 3])\n\nSame as nn.Module, but no need for subclasses to call super().__init__\n\nbs = 16\nnvars = 3\nseq_len = 128\nc_out = 2\nxb = torch.rand(bs, nvars, seq_len)\nmodel = FCN(nvars, c_out)\ntest_eq(model(xb).shape, (bs, c_out))\nmodel\n\nFCN(\n  (convblock1): ConvBlock(\n    (0): Conv1d(3, 128, kernel_size=(7,), stride=(1,), padding=(3,), bias=False)\n    (1): BatchNorm1d(128, eps=1e-05, momentum=0.1, affine=True, track_running_stats=True)\n    (2): ReLU()\n  )\n  (convblock2): ConvBlock(\n    (0): Conv1d(128, 256, kernel_size=(5,), stride=(1,), padding=(2,), bias=False)\n    (1): BatchNorm1d(256, eps=1e-05, momentum=0.1, affine=True, track_running_stats=True)\n    (2): ReLU()\n  )\n  (convblock3): ConvBlock(\n    (0): Conv1d(256, 128, kernel_size=(3,), stride=(1,), padding=(1,), bias=False)\n    (1): BatchNorm1d(128, eps=1e-05, momentum=0.1, affine=True, track_running_stats=True)\n    (2): ReLU()\n  )\n  (gap): GAP1d(\n    (gap): AdaptiveAvgPool1d(output_size=1)\n    (flatten): Flatten(full=False)\n  )\n  (fc): Linear(in_features=128, out_features=2, bias=True)\n)",
    "crumbs": [
      "Models",
      "CNNs",
      "FCN"
    ]
  },
  {
    "objectID": "models.mlp.html",
    "href": "models.mlp.html",
    "title": "MLP",
    "section": "",
    "text": "This is an unofficial PyTorch implementation created by Ignacio Oguiza (oguiza@timeseriesAI.co) based on:\nFawaz, H. I., Forestier, G., Weber, J., Idoumghar, L.
…
}, fc_dropout=0.5)(xb).shape, [xb.shape[0], 2])\ntest_eq(count_parameters(ResNetPlus(3, 2)), 479490) # for (3,2)\n\n\nfrom tsai.models.ResNet import *\n\n\ntest_eq(count_parameters(ResNet(3, 2)), count_parameters(ResNetPlus(3, 2))) # for (3,2)\n\n\nm = ResNetPlus(3, 2, zero_norm=True, coord=True, separable=True)\nprint('n_params:', count_parameters(m))\nprint(m)\nprint(check_weight(m, is_bn)[0])\n\nn_params: 114820\nResNetPlus(\n  (backbone): Sequential(\n    (0): ResBlockPlus(\n      (convblock1): ConvBlock(\n        (0): AddCoords1d()\n        (1): SeparableConv1d(\n          (depthwise_conv): Conv1d(4, 4, kernel_size=(7,), stride=(1,), padding=(3,), groups=4, bias=False)\n          (pointwise_conv): Conv1d(4, 64, kernel_size=(1,), stride=(1,), bias=False)\n        )\n        (2): BatchNorm1d(64, eps=1e-05, momentum=0.1, affine=True, track_running_stats=True)\n        (3): ReLU()\n      )\n      (convblock2): ConvBlock(\n        (0): AddCoords1d()\n        (1): SeparableConv1d(\n          (depthwise_conv): Conv1d(65, 65, kernel_size=(5,), stride=(1,), padding=(2,), groups=65, bias=False)\n          (pointwise_conv): Conv1d(65, 64, kernel_size=(1,), stride=(1,), bias=False)\n        )\n        (2): BatchNorm1d(64, eps=1e-05, momentum=0.1, affine=True, track_running_stats=True)\n        (3): ReLU()\n      )\n      (convblock3): ConvBlock(\n        (0): AddCoords1d()\n        (1): SeparableConv1d(\n          (depthwise_conv): Conv1d(65, 65, kernel_size=(3,), stride=(1,), padding=(1,), groups=65, bias=False)\n          (pointwise_conv): Conv1d(65, 64, kernel_size=(1,), stride=(1,), bias=False)\n        )\n        (2): BatchNorm1d(64, eps=1e-05, momentum=0.1, affine=True, track_running_stats=True)\n      )\n      (shortcut): ConvBlock(\n        (0): AddCoords1d()\n        (1): Conv1d(4, 64, kernel_size=(1,), stride=(1,), bias=False)\n        (2): BatchNorm1d(64, eps=1e-05, momentum=0.1, affine=True, track_running_stats=True)\n      )\n      (add): Add\n      (act): ReLU()\n    )\n    (1): ResBlockPlus(\n      (convblock1): ConvBlock(\n        (0): AddCoords1d()\n        (1): SeparableConv1d(\n          (depthwise_conv): Conv1d(65, 65, kernel_size=(7,), stride=(1,), padding=(3,), groups=65, bias=False)\n          (pointwise_conv): Conv1d(65, 128, kernel_size=(1,), stride=(1,), bias=False)\n        )\n        (2): BatchNorm1d(128, eps=1e-05, momentum=0.1, affine=True, track_running_stats=True)\n        (3): ReLU()\n      )\n      (convblock2): ConvBlock(\n        (0): AddCoords1d()\n        (1): SeparableConv1d(\n          (depthwise_conv): Conv1d(129, 129, kernel_size=(5,), stride=(1,), padding=(2,), groups=129, bias=False)\n          (pointwise_conv): Conv1d(129, 128, kernel_size=(1,), stride=(1,), bias=False)\n        )\n        (2): BatchNorm1d(128, eps=1e-05, momentum=0.1, affine=True, track_running_stats=True)\n        (3): ReLU()\n      )\n      (convblock3): ConvBlock(\n        (0): AddCoords1d()\n        (1): SeparableConv1d(\n          (depthwise_conv): Conv1d(129, 129, kernel_size=(3,), stride=(1,), padding=(1,), groups=129, bias=False)\n          (pointwise_conv): Conv1d(129, 128, kernel_size=(1,), stride=(1,), bias=False)\n        )\n        (2): BatchNorm1d(128, eps=1e-05, momentum=0.1, affine=True, track_running_stats=True)\n      )\n      (shortcut): ConvBlock(\n        (0): AddCoords1d()\n        (1): Conv1d(65, 128, kernel_size=(1,), stride=(1,), bias=False)\n        (2): BatchNorm1d(128, eps=1e-05, momentum=0.1, affine=True, track_running_stats=True)\n      )\n      (add): Add\n      (act): ReLU()\n    )\n    (2): ResBlockPlus(\n      (convblock1): ConvBlock(\n        (0): AddCoords1d()\n        (1): SeparableConv1d(\n          (depthwise_conv): Conv1d(129, 129, kernel_size=(7,), stride=(1,), padding=(3,), groups=129, bias=False)\n          (pointwise_conv): Conv1d(129, 128, kernel_size=(1,), stride=(1,), bias=False)\n        )\n        (2): BatchNorm1d(128, eps=1e-05, momentum=0.1, affine=True, track_running_stats=True)\n        (3): ReLU()\n      )\n      (convblock2): ConvBlock(\n        (0): AddCoords1d()\n        (1): SeparableConv1d(\n          (depthwise_conv): Conv1d(129, 129, kernel_size=(5,), stride=(1,), padding=(2,), groups=129, bias=False)\n          (pointwise_conv): Conv1d(129, 128, kernel_size=(1,), stride=(1,), bias=False)\n        )\n        (2): BatchNorm1d(128, eps=1e-05, momentum=0.1, affine=True, track_running_stats=True)\n        (3): ReLU()\n      )\n      (convblock3): ConvBlock(\n        (0): AddCoords1d()\n        (1): SeparableConv1d(\n          (depthwise_conv): Conv1d(129, 129, kernel_size=(3,), stride=(1,), padding=(1,), groups=129, bias=False)\n          (pointwise_conv): Conv1d(129, 128, kernel_size=(1,), stride=(1,), bias=False)\n        )\n        (2): BatchNorm1d(128, eps=1e-05, momentum=0.1, affine=True, track_running_stats=True)\n      )\n      (shortcut): BatchNorm1d(128, eps=1e-05, momentum=0.1, affine=True, track_running_stats=True)\n      (add): Add\n      (act): ReLU()\n    )\n  )\n  (head): Sequential(\n    (0): GAP1d(\n      (gap): AdaptiveAvgPool1d(output_size=1)\n      (flatten): Reshape(bs)\n    )\n    (1): Linear(in_features=128, out_features=2, bias=True)\n  )\n)\n[1. 1. 0. 1. 1. 1. 0. 1. 1. 1. 0. 1.]",
    "crumbs": [
      "Models",
      "CNNs",
      "ResNetPlus"
    ]
  },
  {
    "objectID": "data.preprocessing.html",
    "href": "data.preprocessing.html",
    "title": "Data preprocessing",
    "section": "",
    "text": "Functions used to preprocess time series (both X and y).\nfrom tsai.data.external import get_UCR_data\ndsid = 'NATOPS'\nX, y, splits = get_UCR_data(dsid, return_split=False)\ntfms = [None, Categorize()]\ndsets = TSDatasets(X, y, tfms=tfms, splits=splits)\nsource",
…
 = MultiTSTPlus([2, 5], c_out, seq_len, )\nmodel2 = MultiTSTPlus([[0,2,5], [0,1,3,4,6]], c_out, seq_len)\ntest_eq(model1.to(xb2.device)(xb2).shape, (bs, c_out))\ntest_eq(model1.to(xb2.device)(xb2).shape, model2.to(xb2.device)(xb2).shape)\n\n\nmodel1 = MultiTSTPlus([2, 5], c_out, seq_len, y_range=(0.5, 5.5))\nbody, head = split_model(model1)\ntest_eq(body.to(xb2.device)(xb2).ndim, 3)\ntest_eq(head.to(xb2.device)(body.to(xb2.device)(xb2)).ndim, 2)\nhead\n\nSequential(\n  (0): Sequential(\n    (0): GELU(approximate='none')\n    (1): fastai.layers.Flatten(full=False)\n    (2): LinBnDrop(\n      (0): Linear(in_features=2560, out_features=2, bias=True)\n    )\n  )\n)\n\n\n\nmodel = MultiTSTPlus([2, 5], c_out, seq_len, pre_norm=True)\n\n\nbs = 8\nn_vars = 3\nseq_len = 12\nc_out = 2\nxb = torch.rand(bs, n_vars, seq_len)\nnet = MultiTSTPlus(n_vars, c_out, seq_len)\nchange_model_head(net, create_pool_plus_head, concat_pool=False)\nprint(net.to(xb.device)(xb).shape)\nnet.head\n\ntorch.Size([8, 2])\n\n\nSequential(\n  (0): AdaptiveAvgPool1d(output_size=1)\n  (1): Reshape(bs)\n  (2): BatchNorm1d(128, eps=1e-05, momentum=0.1, affine=True, track_running_stats=True)\n  (3): Linear(in_features=128, out_features=512, bias=False)\n  (4): ReLU(inplace=True)\n  (5): BatchNorm1d(512, eps=1e-05, momentum=0.1, affine=True, track_running_stats=True)\n  (6): Linear(in_features=512, out_features=2, bias=False)\n)\n\n\n\nbs = 8\nn_vars = 3\nseq_len = 12\nc_out = 10\nxb = torch.rand(bs, n_vars, seq_len)\nnew_head = partial(conv_lin_nd_head, d=(5 ,2))\nnet = MultiTSTPlus(n_vars, c_out, seq_len, custom_head=new_head)\nprint(net.to(xb.device)(xb).shape)\nnet.head\n\ntorch.Size([8, 5, 2, 10])\n\n\nSequential(\n  (0): create_conv_lin_nd_head(\n    (0): Conv1d(128, 10, kernel_size=(1,), stride=(1,))\n    (1): Linear(in_features=12, out_features=10, bias=True)\n    (2): Transpose(-1, -2)\n    (3): Reshape(bs, 5, 2, 10)\n  )\n)",
    "crumbs": [
      "Models",
      "Transformers",
      "TSTPlus"
    ]
  },
  {
    "objectID": "models.tabtransformer.html",
    "href": "models.tabtransformer.html",
    "title": "TabTransformer",
    "section": "",
    "text": "This is an unofficial TabTransformer Pytorch imple
…
    "text": "This is an unofficial PyTorch implementation by Ignacio Oguiza - oguiza@timeseriesAI.co\n\n\nfrom tsai.models.utils import *\n\n\nsource\n\nResCNN\n\n ResCNN (c_in, c_out, coord=False, separable=False, zero_norm=False)\n\nSame as nn.Module, but no need for subclasses to call super().__init__\n\nxb = torch.rand(16, 3, 10)\ntest_eq(ResCNN(3,2,coord=True, separable=True)(xb).shape, [xb.shape[0], 2])\ntest_eq(count_parameters(ResCNN(3,2)), 257283)\n\n\nResCNN(3,2,coord=True, separable=True)\n\nResCNN(\n  (block1): _ResCNNBlock(\n    (convblock1): ConvBlock(\n      (0): AddCoords1d()\n      (1): SeparableConv1d(\n        (depthwise_conv): Conv1d(4, 4, kernel_size=(7,), stride=(1,), padding=(3,), groups=4, bias=False)\n        (pointwise_conv): Conv1d(4, 64, kernel_size=(1,), stride=(1,), bias=False)\n      )\n      (2): BatchNorm1d(64, eps=1e-05, momentum=0.1, affine=True, track_running_stats=True)\n      (3): ReLU()\n    )\n    (convblock2): ConvBlock(\n      (0): AddCoords1d()\n      (1): SeparableConv1d(\n        (depthwise_conv): Conv1d(65, 65, kernel_size=(5,), stride=(1,), padding=(2,), groups=65, bias=False)\n        (pointwise_conv): Conv1d(65, 64, kernel_size=(1,), stride=(1,), bias=False)\n      )\n      (2): BatchNorm1d(64, eps=1e-05, momentum=0.1, affine=True, track_running_stats=True)\n      (3): ReLU()\n    )\n    (convblock3): ConvBlock(\n      (0): AddCoords1d()\n      (1): SeparableConv1d(\n        (depthwise_conv): Conv1d(65, 65, kernel_size=(3,), stride=(1,), padding=(1,), groups=65, bias=False)\n        (pointwise_conv): Conv1d(65, 64, kernel_size=(1,), stride=(1,), bias=False)\n      )\n      (2): BatchNorm1d(64, eps=1e-05, momentum=0.1, affine=True, track_running_stats=True)\n    )\n    (shortcut): ConvBlock(\n      (0): AddCoords1d()\n      (1): Conv1d(4, 64, kernel_size=(1,), stride=(1,), bias=False)\n      (2): BatchNorm1d(64, eps=1e-05, momentum=0.1, affine=True, track_running_stats=True)\n    )\n    (add): Add\n    (act): ReLU()\n  )\n  (block2): ConvBlock(\n    (0): AddCoords1d()\n    (1): SeparableConv1d(\n      (depthwise_conv): Conv1d(65, 65, kernel_size=(3,), stride=(1,), padding=(1,), groups=65, bias=False)\n      (pointwise_conv): Conv1d(65, 128, kernel_size=(1,), stride=(1,), bias=False)\n    )\n    (2): BatchNorm1d(128, eps=1e-05, momentum=0.1, affine=True, track_running_stats=True)\n    (3): LeakyReLU(negative_slope=0.2)\n  )\n  (block3): ConvBlock(\n    (0): AddCoords1d()\n    (1): SeparableConv1d(\n      (depthwise_conv): Conv1d(129, 129, kernel_size=(3,), stride=(1,), padding=(1,), groups=129, bias=False)\n      (pointwise_conv): Conv1d(129, 256, kernel_size=(1,), stride=(1,), bias=False)\n    )\n    (2): BatchNorm1d(256, eps=1e-05, momentum=0.1, affine=True, track_running_stats=True)\n    (3): PReLU(num_parameters=1)\n  )\n  (block4): ConvBlock(\n    (0): AddCoords1d()\n    (1): SeparableConv1d(\n      (depthwise_conv): Conv1d(257, 257, kernel_size=(3,), stride=(1,), padding=(1,), groups=257, bias=False)\n      (pointwise_conv): Conv1d(257, 128, kernel_size=(1,), stride=(1,), bias=False)\n    )\n    (2): BatchNorm1d(128, eps=1e-05, momentum=0.1, affine=True, track_running_stats=True)\n    (3): ELU(alpha=0.3)\n  )\n  (gap): AdaptiveAvgPool1d(output_size=1)\n  (squeeze): Squeeze(dim=-1)\n  (lin): Linear(in_features=128, out_features=2, bias=True)\n)\n\n\n\ncheck_weight(ResCNN(3,2, zero_norm=True), is_bn)\n\n(array([1., 1., 0., 1., 1., 1., 1.], dtype=float32),\n array([0., 0., 0., 0., 0., 0., 0.], dtype=float32))",
    "crumbs": [
      "Models",
      "CNNs",
      "ResCNN"
    ]
  },
  {
    "objectID": "callback.noisy_student.html",
    "href": "callback.noisy_student.html",
    "title": "Noisy student",
…
